app/src/main/assets/model2.tflite (tflite, 246160 bytes, 91 tensors)

plate_pos_model_v1/re_lu/Relu6;plate_pos_model_v1/batch_normalization/FusedBatchNormV3;plate_pos_model_v1/conv2d/BiasAdd/ReadVariableOp/resource;plate_pos_model_v1/conv2d/BiasAdd;plate_pos_model_v1/conv2d_24/Conv2D;plate_pos_model_v1/conv2d/Conv2D f4 [32]
0	0xbf91fcc4	-1.1405263
1	0xbf809cb4	-1.0047822
2	0x3fbcd30d	1.4751908
3	0x3fc23d5a	1.5174973
4	0xbf778dde	-0.9670085
5	0x3fbc063a	1.46894
6	0x3f681df5	0.9067071
7	0x3fabd402	1.3424075
8	0xbfc6794c	-1.5505767
9	0x3f9125e3	1.1339687
10	0x3fb20220	1.3906898
11	0xbf86e523	-1.0538677
12	0xbfaff8d4	-1.3747811
13	0x3fb864d3	1.4405769
14	0xbfbb50de	-1.4634054
15	0x3fb3e9ec	1.4055762
16	0x3f24b604	0.64340234
17	0x3fa619b8	1.2976599
18	0x3faa0fc3	1.328606
19	0xbf45f49e	-0.7732638
20	0xbfbb88ce	-1.4651124
21	0xbfae6fee	-1.3627908
22	0x3fba12e5	1.4537016
23	0xbf9bff71	-1.218733
24	0xbfbada45	-1.459786
25	0x3f0999f2	0.53750527
26	0x3fb9fb23	1.4529766
27	0x3f40803b	0.75195664
28	0x3fb339d1	1.4002019
29	0xbfb3320b	-1.3999647
30	0x3fb170c6	1.3862541
31	0x3fa5049c	1.2892032

plate_pos_model_v1/re_lu/Relu6_1;plate_pos_model_v1/batch_normalization_1/FusedBatchNormV3;plate_pos_model_v1/conv2d_1/BiasAdd/ReadVariableOp/resource;plate_pos_model_v1/conv2d_1/BiasAdd;plate_pos_model_v1/conv2d_24/Conv2D;plate_pos_model_v1/conv2d_1/Conv2D f4 [32]
0	0xbee96fa9	-0.45593002
1	0xbf96a539	-1.1769172
2	0x3e51d112	0.2048991
3	0x3f48053c	0.7813299
4	0x3f21fbaa	0.63274634
5	0xbf077fe3	-0.52929515
6	0x3e9743b1	0.29543832
7	0xbf1f4275	-0.6221078
8	0xbf4cd277	-0.80008644
9	0x3e75a0bb	0.23987095
10	0xbe0b2ec0	-0.13592052
11	0xbf0e8577	-0.556724
12	0xbfce2a91	-1.610674
13	0x3eb72f5d	0.35778323
14	0x3edb8be4	0.42880166
15	0xbea13fa1	-0.31493858
16	0x3f1e5e08	0.6186223
17	0x3ec96835	0.39337316
18	0xbde825e1	-0.1133535
19	0x3efa292a	0.4885953
20	0x3ef686d1	0.48149732
21	0x3df3d2f2	0.11905469
22	0xbf6a377e	-0.91490924
23	0x3f4914df	0.7854747
24	0xbeb5c3c3	-0.35500917
25	0xbf450e9b	-0.7697541
26	0xbf26555f	-0.64974016
27	0x3f280b64	0.6564238
28	0x3e77b6eb	0.24190871
29	0xbebfd5d0	-0.37467813
30	0x3e420729	0.18948044
31	0x3eaafbe0	0.3339529

plate_pos_model_v1/re_lu/Relu6_7;plate_pos_model_v1/batch_normalization_10/FusedBatchNormV3;plate_pos_model_v1/conv2d_9/BiasAdd/ReadVariableOp/resource;plate_pos_model_v1/conv2d_9/BiasAdd;plate_pos_model_v1/conv2d_31/Conv2D;plate_pos_model_v1/conv2d_9/Conv2D f4 [64]
0	0x3d94845c	0.07251808
1	0xbcfbecb0	-0.03075251
2	0x3d2a42d4	0.04156764
3	0x3d9a94b8	0.07547897
4	0x3d47abc6	0.0487478
5	0xbdd23efe	-0.10265921
6	0xbe0572cc	-0.13032073
7	0xba24929d	-0.00062779506
8	0x3dcbe651	0.09956039
9	0xbc9b35c0	-0.018946528
10	0x3e1ce015	0.15319856
11	0x3d4a6a59	0.049417827
12	0x3d367761	0.044547442
13	0x3d3249d3	0.043527436
14	0xbe090e6f	-0.13384412
15	0xbcf09b24	-0.029370852
16	0xbd7a25c5	-0.061071176
17	0x3df4f62f	0.11961018
18	0xbcbf2da1	-0.023337187
19	0x3d7255b0	0.05916375
20	0x3b488c75	0.0030601297
21	0x3dae075f	0.084975
22	0x3d5d9682	0.054098614
23	0xbddd5e3b	-0.10808989
24	0xbd1bad1f	-0.038006898
25	0xbcbcb954	-0.02303759
26	0x3d92acb3	0.07161846
27	0x3d7f01fb	0.062257748
28	0xbde92955	-0.113848366
29	0xbe1c3ac8	-0.15256798
30	0xbdb5c96a	-0.08876307
31	0x3dce7915	0.10081688
32	0x3ca75ae6	0.020429086
33	0x3d6a2452	0.057163544
34	0x3dfa5d2e	0.12224804
35	0x3c8e0da9	0.017340498
36	0xbd0a2aa7	-0.033732083
37	0xbdeae23c	-0.11468932
38	0x3b9def29	0.00481977
39	0x3ddba8d3	0.1072556
40	0xbe35688a	-0.1771566
41	0xbcc91228	-0.02454479
42	0x3d6a491b	0.057198625
43	0xbe2e5517	-0.17024647
44	0xbe58d040	-0.21173191
45	0x3e40d2b7	0.18830381
46	0x3d5b9ecc	0.053618237
47	0x3e01fda8	0.12694418
48	0x3dde9a02	0.108692184
49	0xbd31c368	-0.043399245
50	0x3d5f1618	0.05446443
51	0xbd9b8c28	-0.07595092
52	0x3d55d081	0.052200798
53	0x3dcd45ad	0.10023055
54	0x3df6608a	0.12030132
55	0x3e14996d	0.14511652
56	0x3d9f4ef3	0.0777873
57	0xbe051b33	-0.12998657
58	0x3d849a17	0.06474703
59	0x3b167181	0.0022955837
60	0x3e227e95	0.158686
61	0x3cbff86b	0.023433885
62	0x3d508861	0.05091131
63	0xbe1c57af	-0.15267824

plate_pos_model_v1/re_lu/Relu6_8;plate_pos_model_v1/batch_normalization_11/FusedBatchNormV3;plate_pos_model_v1/depthwise_conv2d_3/depthwise;plate_pos_model_v1/depthwise_conv2d_3/BiasAdd;plate_pos_model_v1/conv2d_31/Conv2D;plate_pos_model_v1/depthwise_conv2d_3/BiasAdd/ReadVariableOp/resource f4 [64]
0	0x3f1b1e18	0.60592794
1	0xbe9051dd	-0.28187457
2	0xbf7c7f41	-0.98631674
3	0x3f251ade	0.6449412
4	0x3c951b96	0.01820163
5	0xbf1363db	-0.5757424
6	0x3f0cb378	0.5496135
7	0xbedc4242	-0.430193
8	0xbe5389fc	-0.20658106
9	0xbf0dee01	-0.5544129
10	0xbf16be1e	-0.58883846
11	0x3ec3df3f	0.3825626
12	0x3f0d5df3	0.5522148
13	0xbdca9fd4	-0.09893766
14	0xbe81ee04	-0.25376904
15	0xbf157e72	-0.58396065
16	0x3f287021	0.65796095
17	0x3f118f2e	0.568591
18	0xbe7fec61	-0.24992515
19	0x3f4e427e	0.8057021
20	0x3f046b49	0.51726204
21	0x3edc1f7c	0.4299277
22	0x3f350e37	0.70724815
23	0xbeb8060f	-0.35942122
24	0x3f00f1cb	0.50368947
25	0xbe40f02d	-0.1884162
26	0xbe02f3ab	-0.12788264
27	0x3e02c2cd	0.12769623
28	0x3e965baf	0.29366824
29	0xbf7504c5	-0.957104
30	0xbe423cf3	-0.18968563
31	0xbf1c6211	-0.6108714
32	0x3e81e5b2	0.25370556
33	0xbf497c14	-0.78704953
34	0xbd059940	-0.032616854
35	0x3e21a586	0.15785798
36	0x3f77c7c7	0.9678921
37	0x3ef16411	0.47146657
38	0xbf674cd6	-0.9035162
39	0x3f0c3cf3	0.547805
40	0xbe9eb471	-0.3099704
41	0x3f371282	0.71512616
42	0x3f603abc	0.8758962
43	0xbe919ea2	-0.2844134
44	0xbe753844	-0.23947245
45	0xbca40749	-0.020023005
46	0xbe14d5c6	-0.14534673
47	0xbc8d3e2d	-0.017241562
48	0xbec4a4af	-0.38406894
49	0xbf27303e	-0.65307987
50	0x3f1b4e58	0.6066642
51	0x3f3bda81	0.73380286
52	0x3f7e3247	0.9929547
53	0x3dce2f05	0.10067562
54	0xbf29aafc	-0.66276526
55	0x3f885b68	1.0652895
56	0xbd109a60	-0.035303473
57	0xbf80325c	-1.0015368
58	0x3f21039e	0.62896144
59	0x3f5869ca	0.8453642
60	0x3f76af38	0.9636111
61	0x3f0d5783	0.5521166
62	0x3f4e2c71	0.8053656
63	0xbe78f783	-0.24313168

plate_pos_model_v1/batch_normalization_11/FusedBatchNormV3;plate_pos_model_v1/depthwise_conv2d_3/depthwise;plate_pos_model_v1/depthwise_conv2d_3/BiasAdd;plate_pos_model_v1/conv2d_31/Conv2D;plate_pos_model_v1/depthwise_conv2d_3/BiasAdd/ReadVariableOp/resource f4 [1, 3, 3, 64]
0	0x3e24c4ad	0.16090651
1	0x3dd3da8b	0.10344418
2	0x3e8cda6b	0.2751039
3	0xbe9ef8ac	-0.31049097
4	0x3ed81ae3	0.42208013
5	0xbf0596b9	-0.5218311
6	0xbc5ba55a	-0.013406122
7	0x3e52ddbb	0.20592396
8	0x3e5e6e97	0.21721874
9	0xbd8cdf5b	-0.06878539
10	0x3eb5ddfd	0.35520926
11	0xbd706bbc	-0.058696494
12	0xbddcb7bc	-0.10777232
13	0xbe0b88a5	-0.13626345
14	0x3e269b2e	0.16270134
15	0x3eb70cf1	0.3575206
16	0xbef5ba62	-0.4799376
17	0xbda7b484	-0.081887275
18	0x3ea1a26f	0.3156924
19	0xbececa0c	-0.40388525
20	0xbd03aa79	-0.032144997
21	0x3e9c1037	0.3048112
22	0xbe9136e5	-0.28362194
23	0xbc8d19d8	-0.017224237
24	0xbeed0d3c	-0.4629916
25	0x3e318a63	0.17337947
26	0xbe99d62c	-0.30046213
27	0xbf0213e7	-0.5081162
28	0xbf2c540d	-0.6731575
29	0x3dcdddc7	0.10052066
30	0xbe219ecf	-0.15783237
31	0x3debe716	0.115186855
32	0xbc9f4028	-0.019439772
33	0x3eca7c09	0.39547756
34	0x3ecfcd90	0.4058652
35	0xbe6f6c88	-0.23381245
36	0xbe270820	-0.16311693
37	0x3d930bcf	0.07179987
38	0x3ed793d3	0.42104968
39	0xbe912912	-0.28351647
40	0x3ef8d54b	0.4860023
41	0x3dbad95f	0.091234915
42	0xbf07949e	-0.52961147
43	0xbea85d0b	-0.32883486
44	0x3eab576d	0.33465138
45	0xbefab5da	-0.48966867
46	0xbebb55cb	-0.36588892
47	0x3e3fb3cf	0.18720935
48	0xbdd769cd	-0.10518227
49	0x3e320676	0.17385277
50	0xbe04ba32	-0.12961653
51	0xbf207ffb	-0.6269528
52	0xbda370fa	-0.07980533
53	0xbedccf0f	-0.43126723
54	0xbd58f31b	-0.05296622
55	0xbec1334a	-0.37734443
56	0xbeda5816	-0.4264533
57	0x3ec1f372	0.37881047
58	0x3e175694	0.1477912
59	0xbec23ad1	-0.37935498
60	0x3e41f1b6	0.18939862
61	0xbf0746fc	-0.5284269
62	0xbf315363	-0.69267863
63	0xbdb414d0	-0.08793032
64	0xbd1ccf77	-0.03828379
65	0x3f0c18a0	0.54725075
66	0x3f1175b3	0.5682022
67	0xbeab0fb8	-0.3341043
68	0xbec91667	-0.39274904
69	0x3ee855f6	0.45378083
70	0xbd7429d3	-0.0596102
71	0x3e682e5b	0.22673933
72	0x3eb15038	0.34631515
73	0x3f0fca33	0.56167907
74	0x3d764db0	0.060132682
75	0x3e3d871d	0.18508573
76	0xbe7addfd	-0.24498744
77	0xbe9215a7	-0.28532144
78	0x3e906516	0.28202122
79	0x3b9422fe	0.004520773
80	0xbf0d0958	-0.5509238
81	0xbe9b55e1	-0.30338958
82	0x3dbae06c	0.09124836
83	0xbe4a00c2	-0.19726852
84	0xbe265ace	-0.16245577
85	0x3e866288	0.26247048
86	0xbe788f7f	-0.2427349
87	0xbde84beb	-0.11342605
88	0xbea31872	-0.31854588
89	0xbda769e5	-0.08174495
90	0xbf042e6c	-0.51633334
91	0xbeaca02f	-0.3371596
92	0x3e669757	0.22518669
93	0x3e14836c	0.14503258
94	0xbee4573d	-0.44597808
95	0x3e46d6a2	0.19417813
96	0xbedff818	-0.43743968
97	0x3ec64fdc	0.38732803
98	0x3e0043b7	0.12525831
99	0xbec1d8b1	-0.37860635
100	0xbeb400cc	-0.35156858
101	0x3d23698b	0.039895575
102	0x3e8af3a9	0.27139023
103	0xbe440388	-0.19141972
104	0x3ecd9633	0.40153655
105	0xbd2da5fa	-0.042394616
106	0xbf19bb02	-0.60050976
107	0xbec86f78	-0.39147544
108	0xbf10d7d0	-0.56579304
109	0xbee237f1	-0.44183305
110	0xbf263e2f	-0.64938635
111	0x3e0e11f0	0.1387403
112	0xbdc44ff5	-0.09585563
113	0x3ea198d1	0.31561902
114	0xbdb78723	-0.08961322
115	0xbf635a6b	-0.8880984
116	0xbe8c8c77	-0.27450916
117	0xbea97c7a	-0.3310278
118	0xbe2f0c15	-0.17094453
119	0xbe103fc5	-0.14086826
120	0xbe13af29	-0.14422287
121	0x3e05f5a7	0.1308199
122	0xbebcb4ed	-0.36856785
123	0xbea7fc2b	-0.32809576
124	0xbe0db235	-0.13837512
125	0xbf2490b7	-0.6428332
126	0xbe8b817f	-0.27247235
127	0xbea3a430	-0.31961203
128	0xbe575579	-0.21028699
129	0x3ef133d4	0.47109854
130	0x3e31db9e	0.17368934
131	0x3cb1838a	0.021669168
132	0x3db868fb	0.090043984
133	0x3ef5aa50	0.479815
134	0x3e2058e2	0.15658906
135	0x3eb80794	0.35943282
136	0x3ef51f9a	0.47875673
137	0x3eff9677	0.49919483
138	0x3eb0ef7e	0.34557718
139	0xbd802880	-0.06257725
140	0xbe77c90b	-0.24197786
141	0xbdcc6905	-0.099809684
142	0x3e46a84a	0.19400135
143	0x3e84a079	0.2590368
144	0xbd129935	-0.03579064
145	0xbdc3e2a8	-0.095647156
146	0xbebda654	-0.3704096
147	0xbe1a6dde	-0.15080974
148	0x3decb53d	0.11558006
149	0xbe3461ec	-0.17615479
150	0x3d2f3c27	0.042781975
151	0xbde4ffae	-0.111815795
152	0x3de496ef	0.11161601
153	0xbefbe112	-0.49195153
154	0xbe0a3b58	-0.134992
155	0x3e580679	0.21096219
156	0xbf0ecc3e	-0.557804
157	0x3f5dcbcb	0.8663909
158	0xbdde2b6e	-0.10848127
159	0x3e41e760	0.18935919
160	0xbebf241b	-0.37332234
161	0xbc234702	-0.00996566
162	0xbf1646aa	-0.58701575
163	0xbedc17ca	-0.429869
164	0xbe89e9d8	-0.2693622
165	0x3e4ba585	0.1988736
166	0xbee40d09	-0.44541195
167	0x3e40b325	0.18818338
168	0x3efa2647	0.48857328
169	0xbe2f0c75	-0.17094596
170	0xbf0a083f	-0.5391883
171	0x3ea28340	0.3174076
172	0xbe2421da	-0.16028538
173	0x3eb7c9c8	0.35896134
174	0xbf4d9b8a	-0.8031546
175	0x3edbf8a8	0.42963147
176	0xbe634e7c	-0.22197908
177	0x3ddb7727	0.10716086
178	0xbda6b939	-0.08140797
179	0xbee14570	-0.4399829
180	0xbec4b669	-0.38420418
181	0xbee8f123	-0.45496473
182	0xbd2e6b86	-0.04258301
183	0xbe5a849e	-0.21339652
184	0x3ece6bda	0.4031666
185	0x3f12e79f	0.57384676
186	0xbef9dfb7	-0.48803493
187	0xbdbb372a	-0.09141381
188	0xbf0cc90c	-0.54994273
189	0xbe9ef022	-0.31042582
190	0xbe8f4159	-0.27979544
191	0xbe9eaebd	-0.3099269
192	0xbd66e82e	-0.056373768
193	0xbe8b15c9	-0.27165058
194	0x3e00a057	0.12561165
195	0xbe37ce1b	-0.17949717
196	0x3ee5a80a	0.44854766
197	0x3df4a9d6	0.11946456
198	0xbe9872ad	-0.2977499
199	0x3e7ea581	0.24867822
200	0x3a0b87b9	0.00053226535
201	0xbec6e070	-0.38843107
202	0x3e8240fb	0.254402
203	0xbe65c43c	-0.22438139
204	0x3d17ab34	0.037028506
205	0x3ef83619	0.48478773
206	0x3ddee287	0.108830504
207	0x3e3ea01c	0.18615764
208	0x3d7929da	0.06083093
209	0xbdad2154	-0.084536225
210	0x3f05337d	0.5203169
211	0xbec87a5c	-0.39155853
212	0xbe0e00c5	-0.13867481
213	0x3ce11e70	0.027480334
214	0xbd91f612	-0.07127012
215	0xbe8c0cfa	-0.2735365
216	0xbe560f23	-0.20904212
217	0x3e9432a2	0.2894488
218	0x3e5facd5	0.21843274
219	0xbe648cdf	-0.22319363
220	0xbf20c2db	-0.62797326
221	0x3eaa2bab	0.3323644
222	0xbe930d17	-0.28720924
223	0x3da5aead	0.080899574
224	0xbddc4e88	-0.10757166
225	0x3edfe5d4	0.43730032
226	0x3f02b51a	0.5105759
227	0xbe0a258b	-0.13490884
228	0xbeb733e5	-0.3578178
229	0xbe8ebe2b	-0.27879462
230	0x3ebccc36	0.3687455
231	0xbe526515	-0.20546372
232	0xbee75995	-0.45185533
233	0xbeb6a4a6	-0.35672492
234	0xbd9fd754	-0.078047425
235	0x3eb20de3	0.3477622
236	0x3f068a29	0.52554566
237	0xbeeee27d	-0.46657172
238	0x3eaa5db9	0.3327463
239	0x3c9145a6	0.017733406
240	0x3e9a09f5	0.30085722
241	0x3e855f39	0.26049212
242	0xbd98b183	-0.07455733
243	0xbf32b101	-0.69801337
244	0xbe24d4ee	-0.16096851
245	0xbe6d6841	-0.23184301
246	0x3f2568b8	0.64612913
247	0xbe2a83ec	-0.16651887
248	0xbeeca33c	-0.46218288
249	0x3e8a32cc	0.2699188
250	0x3d15538e	0.036456637
251	0xbed36465	-0.41287532
252	0xbd0493ef	-0.032367643
253	0xbe027e47	-0.12743483
254	0xbe98aa57	-0.2981746
255	0x3d0a94c9	0.0338333

plate_pos_model_v1/re_lu/Relu6_9;plate_pos_model_v1/batch_normalization_13/FusedBatchNormV3;plate_pos_model_v1/conv2d_11/BiasAdd/ReadVariableOp/resource;plate_pos_model_v1/conv2d_11/BiasAdd;plate_pos_model_v1/conv2d_31/Conv2D;plate_pos_model_v1/conv2d_11/Conv2D f4 [64]
0	0xbd9cd4c3	-0.076577686
1	0xbe1aca69	-0.15116276
2	0x3e045edc	0.12926811
3	0xbe4a7616	-0.19771609
4	0xbe070191	-0.13184191
5	0x3d99dcc4	0.07512811
6	0x3dabbebd	0.0838599
7	0xbd65217e	-0.055940144
8	0x3e95bb85	0.2924463
9	0xbe41b9a4	-0.18918473
10	0xbdc4cb48	-0.09609085
11	0xbde3665f	-0.1110351
12	0xbc6d0b32	-0.014468001
13	0x3ec13e5e	0.37742895
14	0x3deb2b12	0.114828244
15	0xbdce487b	-0.10072418
16	0xbd1699cc	-0.036767766
17	0x3df4ff10	0.11962712
18	0xbe426e31	-0.18987347
19	0x3dcc6f39	0.099821515
20	0xbe89ceb3	-0.2691551
21	0x3e87f85a	0.26556665
22	0x3e0f8899	0.14016952
23	0x3de3eec5	0.11129526
24	0xbd5822e9	-0.052767668
25	0x3e8fc341	0.28078654
26	0x3dc5f9b9	0.096667714
27	0xba9b0391	-0.0011826624
28	0xbd66e76c	-0.056373045
29	0x3c1a248f	0.00940813
30	0xbe5f7fe7	-0.21826135
31	0x3dd1465c	0.10218498
32	0x3ced6dfe	0.028983112
33	0xbd42132a	-0.047381558
34	0xbddd2647	-0.107983164
35	0xbce3270b	-0.027728578
36	0x3d494b21	0.049143914
37	0x3d20ade4	0.039228335
38	0xbe92bd9e	-0.2866029
39	0xbe6167e0	-0.22012281
40	0xbd8ea0ad	-0.0696424
41	0xbd1467cc	-0.0362318
42	0x3e3c5ea9	0.18395485
43	0xbc0a52df	-0.00844261
44	0x3e161c6a	0.14659277
45	0x3e86d613	0.263352
46	0x3dbbc8a8	0.091691315
47	0xba64ccae	-0.00087280094
48	0xbc48f54d	-0.0122655155
49	0x3e59ad16	0.21257433
50	0x3c811030	0.01575479
51	0xbcfa2552	-0.030535374
52	0x3e9f8694	0.31157362
53	0xbd2c46e1	-0.042059783
54	0xbddded6c	-0.108363
55	0xbd9f0e7f	-0.07766437
56	0xbe0ceafb	-0.13761513
57	0xbdb733a0	-0.089453936
58	0x3e8051d1	0.2506242
59	0x3dd22185	0.102602996
60	0x3cae1122	0.021248404
61	0x3d161845	0.03664424
62	0xbe16b548	-0.14717591
63	0x3d04a90d	0.032387782

plate_pos_model_v1/re_lu/Relu6_11;plate_pos_model_v1/batch_normalization_14/FusedBatchNormV3;plate_pos_model_v1/depthwise_conv2d_4/depthwise;plate_pos_model_v1/depthwise_conv2d_4/BiasAdd;plate_pos_model_v1/conv2d_31/Conv2D;plate_pos_model_v1/depthwise_conv2d_4/BiasAdd/ReadVariableOp/resource f4 [64]
0	0xbefa0b3a	-0.4883669
1	0xbf11fefe	-0.5702971
2	0xbcfc1dfb	-0.030776015
3	0xbed3e8c7	-0.41388533
4	0x3eb13d1c	0.34616935
5	0x3f0a24ce	0.5396241
6	0x3f6ed4f7	0.9329371
7	0xbe27916b	-0.16364066
8	0xbf11ed46	-0.57002676
9	0xbcc6de2c	-0.024275862
10	0xbef8d374	-0.48598826
11	0xbf4705c4	-0.7774317
12	0xbe95b9ae	-0.29243225
13	0x3f270e82	0.6525651
14	0xbfa82ae8	-1.3138094
15	0x3f06e072	0.52686226
16	0x3ea3e255	0.32008615
17	0x3e146379	0.14491071
18	0xbe7d0052	-0.24707153
19	0xbd7e8603	-0.062139522
20	0xbf23da90	-0.64005375
21	0xbec7ab19	-0.38997725
22	0x3f78ff17	0.97264236
23	0x3f816a73	1.0110611
24	0xbed610d2	-0.41809708
25	0xbd2927c5	-0.041297693
26	0xbea3f457	-0.32022354
27	0x3f5f9680	0.8733902
28	0xbf388068	-0.7207093
29	0xbf869425	-1.051396
30	0xbe3f412b	-0.18677203
31	0x3ee6f3e1	0.4510794
32	0x3e56e078	0.20984066
33	0xbe479929	-0.1949202
34	0xbe52dabe	-0.20591256
35	0xbe954f24	-0.29161942
36	0x3ec5b6fc	0.38616168
37	0xbcdb928c	-0.026803277
38	0xbebf72a4	-0.3739215
39	0xbe967483	-0.29385766
40	0xbf0dd646	-0.5540508
41	0x3f1bd65c	0.6087396
42	0xbd934a2e	-0.07191883
43	0xbd9518b8	-0.07280105
44	0x3e151fcb	0.1456291
45	0xbee7516e	-0.45179313
46	0xbf49ec15	-0.7887586
47	0x3f0fd667	0.56186527
48	0x3f638315	0.8887189
49	0xbe4b3f93	-0.1984847
50	0x3f05287c	0.520149
51	0xbf39500d	-0.7238777
52	0x3fb59183	1.4185032
53	0xbf46cda5	-0.7765754
54	0x3f17c497	0.5928435
55	0xbe89929e	-0.26869673
56	0xbf19c83a	-0.60071146
57	0x3ea6a984	0.32551205
58	0xbe9a1c77	-0.30099842
59	0xbdedaece	-0.11605607
60	0xbf0ac16f	-0.54201406
61	0xbf1e3175	-0.61794215
62	0xbec6b8ec	-0.3881296
63	0x3e932e2a	0.28746158

plate_pos_model_v1/batch_normalization_14/FusedBatchNormV3;plate_pos_model_v1/depthwise_conv2d_4/depthwise;plate_pos_model_v1/depthwise_conv2d_4/BiasAdd;plate_pos_model_v1/conv2d_31/Conv2D;plate_pos_model_v1/depthwise_conv2d_4/BiasAdd/ReadVariableOp/resource f4 [1, 3, 3, 64]
0	0x3efc871f	0.4932184
1	0x3dea0d6a	0.1142834
2	0x3e0572e2	0.13032106
3	0x3f1832b2	0.59452355
4	0xbcdbb2e0	-0.026818693
5	0x3e00cd77	0.12578379
6	0xbe21644b	-0.15760915
7	0x3dfe9149	0.12430055
8	0xbe4b0571	-0.19826294
9	0x3da21d6b	0.07915767
10	0x3e01e700	0.12685776
11	0x3e99802b	0.29980597
12	0xbd1a753a	-0.037709452
13	0xbe5aea37	-0.21378408
14	0x3f0031ef	0.5007619
15	0xbf5c703e	-0.8610877
16	0xbdb26461	-0.08710552
17	0x3f61a82a	0.88147223
18	0x3e9f4079	0.31103876
19	0xbf04dfaa	-0.51903784
20	0x3f86f317	1.0542935
21	0x3d1eccfd	0.03876971
22	0xbf42403a	-0.7587925
23	0xbf2aa2a6	-0.6665443
24	0x3d333622	0.043752797
25	0xbf8af76f	-1.0856761
26	0xbccfbf65	-0.025359819
27	0xbf8ee8b2	-1.1164763
28	0x3f017406	0.5056766
29	0x3f3d710c	0.7400062
30	0xbe0a7b10	-0.13523507
31	0x3ee71d9d	0.4513978
32	0x3d9919fc	0.07475659
33	0x3e729b29	0.23692001
34	0xbe9fc84f	-0.3120751
35	0x3f3a1103	0.7268221
36	0xbf9eeedf	-1.2416648
37	0xbf6960aa	-0.9116312
38	0xbe913523	-0.28360853
39	0xbe05e2cf	-0.13074802
40	0x3ee3f8fb	0.44525895
41	0xbe5da7a6	-0.21645984
42	0x3f114a8e	0.56754386
43	0x3e70ab26	0.23502788
44	0x3eafd69d	0.34343424
45	0x3d33a4c8	0.04385832
46	0x3e2549a0	0.16141367
47	0xbebe4606	-0.371628
48	0xbf2a0a7a	-0.66422236
49	0xbe2c5d6d	-0.16832514
50	0x3dcc84aa	0.09986241
51	0xbd974a1e	-0.073871836
52	0xbbbca677	-0.005757149
53	0x3e7f7939	0.24948587
54	0xbe82013f	-0.25391576
55	0xbcaf8323	-0.021424836
56	0x3e9d6236	0.30738991
57	0x3e8e7b49	0.27828434
58	0x3d8c421e	0.06848548
59	0xbe621679	-0.22078885
60	0x3e51ae68	0.20476687
61	0xbe013040	-0.12616062
62	0xbe37a269	-0.17933048
63	0xbdb7f606	-0.08982472
64	0x3c279693	0.010228771
65	0x3ed3ca0e	0.41365093
66	0x3e90b1d4	0.28260672
67	0x3f05c6d2	0.522565
68	0xbf38447b	-0.7197949
69	0xbd103dc0	-0.03521514
70	0xbf4b4ec4	-0.7941706
71	0x3de5be08	0.11217886
72	0x3dd00245	0.10156683
73	0x3c38bfc2	0.011276187
74	0x3edc54ab	0.43033347
75	0x3f0903c5	0.53521377
76	0xbf3333f5	-0.70001155
77	0xbf725281	-0.9465714
78	0x3eae79ba	0.34077245
79	0xbe9345f2	-0.28764302
80	0xbe1d6844	-0.15371805
81	0x3ed2ed27	0.41196558
82	0xbe224efb	-0.15850441
83	0xbd808175	-0.06274692
84	0xbcf84957	-0.030308409
85	0x3d8af6b1	0.06785334
86	0xbe47fbec	-0.19529694
87	0xbe19765c	-0.14986557
88	0x3ed1ef1e	0.41002744
89	0xbe6f862b	-0.23391025
90	0x3e1fd861	0.15609886
91	0xbea6c20b	-0.32569918
92	0x3e14acb4	0.14519006
93	0x3e80feb7	0.25194332
94	0xbefa5720	-0.48894596
95	0xbdb1e82c	-0.086868614
96	0x3deb842d	0.1149982
97	0x3eca72e5	0.39540783
98	0x3f079143	0.52956027
99	0x3e881ef2	0.2658611
100	0x3de06d01	0.10958291
101	0x3e389ccd	0.18028565
102	0x3ed0ecce	0.40805668
103	0xbe0fdde6	-0.14049491
104	0x3f33965d	0.7015131
105	0xbe35996e	-0.1773431
106	0x3e50d553	0.20393877
107	0x3ed802b9	0.42189577
108	0x3f02f4c2	0.5115472
109	0x3dd1938f	0.10233223
110	0x3eb14388	0.34621835
111	0xbe853f22	-0.2602473
112	0xbe8522e0	-0.2600317
113	0xbd9fddc8	-0.07805973
114	0x3d0d89bf	0.034555193
115	0xbe13cb0f	-0.1443293
116	0x3f1028cd	0.5631226
117	0x3f1c2591	0.6099482
118	0xbed4a5af	-0.41532657
119	0xbdc0666b	-0.09394535
120	0x3eff8bad	0.49911252
121	0xbf1b576a	-0.6068026
122	0x3da0bc55	0.078484215
123	0x3e3c53b5	0.18391307
124	0x3e577a63	0.2104278
125	0x3f141628	0.5784631
126	0x3dd8f867	0.10594254
127	0xbd5dc4f2	-0.0541429
128	0x3f0630a7	0.5241799
129	0x3edbf33f	0.4295902
130	0xbe8d2315	-0.27565828
131	0xbdc57b34	-0.0964264
132	0xbf0214cb	-0.5081298
133	0x3e544aa6	0.20731601
134	0xbe697a07	-0.22800456
135	0x3ebb045a	0.36526757
136	0xbd1a9a52	-0.037744828
137	0x3df1afd3	0.11801114
138	0x3dcaf6d7	0.09910362
139	0x3f132f42	0.57493985
140	0xbf432bff	-0.7623901
141	0x3facc72f	1.3498286
142	0x3eedc9d8	0.46443057
143	0xbf07a0e8	-0.529799
144	0xbf510036	-0.81640947
145	0x3f4066e9	0.7515703
146	0xbc0d8266	-0.008637046
147	0x3e49aa36	0.19693837
148	0x3e9398d4	0.28827536
149	0x3d133372	0.035937734
150	0xbf11060d	-0.5664986
151	0xbc3e0425	-0.011597668
152	0x3eb78d80	0.35850143
153	0xbf0b29ce	-0.54360664
154	0xbb5895d2	-0.0033048284
155	0xbf845e93	-1.0341362
156	0x3f1d5bac	0.61468005
157	0x3f4378c3	0.7635614
158	0x3eb46586	0.35233706
159	0xbed92632	-0.42411953
160	0xbc671730	-0.014104649
161	0x3f01d0e1	0.5070935
162	0x3e8c5f1e	0.2741632
163	0x3ece75f9	0.4032438
164	0xbf6ce2cb	-0.9253356
165	0x3da976ad	0.08274589
166	0xbe9fb998	-0.31196284
167	0x3ec49da8	0.38401532
168	0x3e8b48e3	0.27204046
169	0xbe890019	-0.26757887
170	0x3eb0acc3	0.34506807
171	0xbee8c7f2	-0.45465046
172	0x3eb2aacf	0.34895942
173	0x3c8a3664	0.016871639
174	0x3e04bea8	0.12963355
175	0xbe8822af	-0.2658896
176	0xbe99f15d	-0.30066958
177	0xbc55454f	-0.013017013
178	0x3e7b544e	0.24543878
179	0x3ea7847e	0.3271827
180	0x3f57e66e	0.8433598
181	0x3fbfe16b	1.4990667
182	0xbe3d0881	-0.18460275
183	0xbe4afb71	-0.1982248
184	0x3ed2cda3	0.41172513
185	0xbe5abf3b	-0.21362011
186	0xbc0602bb	-0.008179362
187	0xbe067a20	-0.13132524
188	0x3d4d3e20	0.050108075
189	0xbe465f96	-0.193724
190	0x3ee5d548	0.44889283
191	0xbeeac00a	-0.4584964
192	0x3de457bd	0.11149547
193	0x3eeca087	0.46216223
194	0xbaeeeb3a	-0.0018228062
195	0x3e0b8b5b	0.13627379
196	0x3ce51d20	0.02796799
197	0xbe8db54f	-0.2767739
198	0x3e01847a	0.12648192
199	0x3e8a261a	0.26982194
200	0xbdc91028	-0.09817535
201	0x3e07fb50	0.13279462
202	0xbe20a826	-0.15689144
203	0xbb51c8fc	-0.0032010665
204	0x3e8957df	0.26824853
205	0xbe11a573	-0.1422327
206	0x3f635738	0.8880496
207	0xbeb6501b	-0.3560799
208	0xbd38b38b	-0.0450931
209	0xbeb4ba80	-0.35298538
210	0x3f1d0b9b	0.61345834
211	0xbeec7d76	-0.4618947
212	0xbcbf37bd	-0.023342008
213	0x3d6a2588	0.0571647
214	0xbd03fb53	-0.032222103
215	0xbd67f73d	-0.05663227
216	0x3f2bc062	0.6709043
217	0xbe101ef6	-0.1407431
218	0xbd98f504	-0.07468608
219	0xbdc220fa	-0.09478946
220	0x3dddd20e	0.108310804
221	0x3f730f22	0.94944966
222	0xbf14f49e	-0.58185756
223	0x3ec74213	0.38917598
224	0xbd486f00	-0.048933983
225	0x3d66d4b8	0.05635521
226	0xbe36b645	-0.17842968
227	0x3e843294	0.25819838
228	0xbe41c7c7	-0.18923865
229	0xbf3b52a2	-0.7317296
230	0x3e7d4849	0.24734606
231	0xbded8418	-0.115974605
232	0x3e1c75c1	0.15279295
233	0x3bee2349	0.00726739
234	0x3e50d2f9	0.2039298
235	0x3e3b6d2c	0.18303365
236	0xbd28dcd8	-0.041226238
237	0x3e4ca696	0.19985422
238	0x3e381f95	0.17980798
239	0xbd85ed92	-0.065394536
240	0x3d36daaa	0.044642128
241	0xbd8eecb4	-0.06978741
242	0x3a5604f2	0.0008164189
243	0x3f483e0f	0.78219694
244	0xbf47b777	-0.7801432
245	0xbdcc015c	-0.09961197
246	0xbd1adf1a	-0.037810422
247	0x3ed80b36	0.42196053
248	0x3e0b8a29	0.13626923
249	0x3ecd10f3	0.40051994
250	0x3dd328a8	0.10310489
251	0x3defc83e	0.11708115
252	0x3d05f3f0	0.03270334
253	0x3f22b744	0.6356089
254	0xbe5299af	-0.20566438
255	0xbc9fc678	-0.019503817

plate_pos_model_v1/re_lu/Relu6_10;plate_pos_model_v1/batch_normalization_16/FusedBatchNormV3;plate_pos_model_v1/conv2d_13/BiasAdd/ReadVariableOp/resource;plate_pos_model_v1/conv2d_13/BiasAdd;plate_pos_model_v1/conv2d_31/Conv2D;plate_pos_model_v1/conv2d_13/Conv2D f4 [64]
0	0xbdb662ff	-0.08905601
1	0x3d8c2e14	0.06844726
2	0x3dfcae37	0.12337916
3	0xbd1c0e98	-0.038099855
4	0xbd99859e	-0.074961886
5	0x3d8ec233	0.06970634
6	0x3e169e4f	0.14708827
7	0x3dcf241a	0.10114308
8	0x3dde8b0a	0.10866363
9	0x3dcf23ef	0.10114276
10	0x3d859f9a	0.06524582
11	0x3d8969a5	0.06709603
12	0x3d8de091	0.06927598
13	0x3e2f3f80	0.17114067
14	0x3d288701	0.041144375
15	0xbd746a55	-0.05967172
16	0x3daa0a93	0.08302798
17	0x3e3fe59d	0.18739934
18	0xbce91978	-0.028454527
19	0x3dec8d3c	0.11550376
20	0xbafc3f32	-0.0019244908
21	0x3e99fea1	0.3007708
22	0x3d12affb	0.03581236
23	0x3e41342a	0.18867555
24	0x3ddc157c	0.10746285
25	0x3dd12cc8	0.102136195
26	0x3dd37694	0.10325351
27	0xbdd61ff6	-0.10455315
28	0xbd6b1cd2	-0.057400532
29	0xbd5ee417	-0.054416742
30	0xbd96d632	-0.07365073
31	0xbe10e1e6	-0.14148673
32	0xbdb4a92f	-0.08821332
33	0x3c749c4b	0.014929841
34	0xbddb3afe	-0.10704611
35	0x3d865c64	0.06560591
36	0xbe6b581b	-0.22982828
37	0x3de14161	0.10998798
38	0xbd87860c	-0.06617364
39	0x3c33e010	0.010978714
40	0x3b9c427a	0.004768667
41	0x3ddb0cfe	0.106958374
42	0x3df3a69b	0.11897012
43	0x3dac20fc	0.08404729
44	0xbcd28254	-0.02569691
45	0xbd23c7e9	-0.03998557
46	0x3d18840f	0.037235316
47	0xbde64b51	-0.11244834
48	0x3db7975d	0.08964417
49	0x3d853b62	0.06505467
50	0xbd26e55c	-0.040746078
51	0x3e2441a1	0.1604066
52	0xbcc0cf59	-0.023536371
53	0x3d8b89d7	0.068134
54	0x3d23ea3e	0.040018313
55	0x3cc615df	0.02418035
56	0xbd86a36e	-0.065741405
57	0x3d150d5a	0.036389686
58	0x3df1fca1	0.11815763
59	0xbdb617d4	-0.088912636
60	0x3e94ad22	0.2903834
61	0x3e6753cb	0.22590558
62	0x3dae0772	0.08497514
63	0x3e0febb4	0.14054757

plate_pos_model_v1/re_lu/Relu6_12;plate_pos_model_v1/batch_normalization_17/FusedBatchNormV3;plate_pos_model_v1/depthwise_conv2d_5/depthwise;plate_pos_model_v1/depthwise_conv2d_5/BiasAdd;plate_pos_model_v1/conv2d_31/Conv2D;plate_pos_model_v1/depthwise_conv2d_5/BiasAdd/ReadVariableOp/resource f4 [64]
0	0x3eafba5a	0.34321862
1	0x3f27ed57	0.65596527
2	0xbe651008	-0.22369397
3	0x3e554d29	0.20830216
4	0x3e1bae64	0.15203243
5	0x3e9af2b8	0.30263305
6	0x3e56eaf0	0.20988059
7	0xbd861a4e	-0.06547986
8	0xbe53c62a	-0.20681062
9	0xbf47b90d	-0.7801674
10	0x3f2dbd47	0.6786694
11	0xbcecae9e	-0.028891858
12	0x3e704180	0.23462486
13	0xbe453d79	-0.19261731
14	0xbdbfddde	-0.0936849
15	0xbf23f8b7	-0.64051384
16	0xbf62ace7	-0.8854508
17	0xbe1f88a0	-0.15579462
18	0x3dc82744	0.09773114
19	0x3c956580	0.018236876
20	0x3ef67113	0.48133144
21	0xbd873d5c	-0.066035
22	0x3dafabf0	0.08577716
23	0xbd6e56d8	-0.05818829
24	0xbef3426d	-0.47511616
25	0xbe90a9be	-0.28254503
26	0x3d79d494	0.060993746
27	0xbe9fed6e	-0.31235832
28	0xbe5c1e4f	-0.21495937
29	0x3f20f454	0.62872815
30	0xbcc722c8	-0.024308577
31	0xbe96d118	-0.294564
32	0xbf43b5e6	-0.7644943
33	0xbd818d50	-0.06325781
34	0x3efba7a3	0.49151334
35	0x3eb4163d	0.35173216
36	0x3e11167f	0.14168738
37	0x3f391608	0.7229924
38	0xbec8a029	-0.39184693
39	0x3ed87948	0.4228003
40	0xbedcaea0	-0.43101978
41	0xbe06a08a	-0.13147178
42	0xbf11374b	-0.56724995
43	0xbef0a18e	-0.46998256
44	0x3f39869a	0.7247101
45	0x3eb4e1b4	0.35328448
46	0x3f27feea	0.65623343
47	0xbf0236e5	-0.5086501
48	0xbeb4102f	-0.35168597
49	0x3f49df09	0.7885595
50	0x3f16b90d	0.58876115
51	0xbed1f4c1	-0.41007045
52	0xbe4b5de3	-0.19860034
53	0x3f428cf6	0.7599634
54	0x3e1a1079	0.15045346
55	0xbdb2cc80	-0.087304115
56	0xbefef977	-0.49799702
57	0xbd334030	-0.043762386
58	0x3e9808e8	0.29694295
59	0xbedd9aab	-0.43282065
60	0xbd579d70	-0.05264038
61	0xbce8ca2e	-0.02841672
62	0xbe7c50a2	-0.24640134
63	0x3f166cc4	0.58759713

plate_pos_model_v1/batch_normalization_17/FusedBatchNormV3;plate_pos_model_v1/depthwise_conv2d_5/depthwise;plate_pos_model_v1/depthwise_conv2d_5/BiasAdd;plate_pos_model_v1/conv2d_31/Conv2D;plate_pos_model_v1/depthwise_conv2d_5/BiasAdd/ReadVariableOp/resource f4 [1, 3, 3, 64]
0	0xbef166f5	-0.47148862
1	0x3d13f846	0.036125444
2	0xbfbefc4f	-1.4920748
3	0x3e301279	0.17194547
4	0x3f5f9eaf	0.87351507
5	0xbf95a346	-1.1690452
6	0xbfbd6f5d	-1.479961
7	0xbf563f29	-0.83690125
8	0x3f437f7f	0.7636642
9	0x3d3925f6	0.045202218
10	0xbec4478a	-0.3833583
11	0x3f6da7be	0.9283408
12	0xbf9e0c37	-1.2347478
13	0xbf2d572a	-0.67711127
14	0xc024da39	-2.5758193
15	0x3eeb7760	0.45989513
16	0x3c112bf0	0.008860573
17	0x3f16d161	0.58913237
18	0x3f16623f	0.5874366
19	0xbf04043e	-0.51568973
20	0xbf510d1e	-0.8166064
21	0xbf7e058f	-0.9922723
22	0x3e2bb71a	0.16769066
23	0x3fb5cee1	1.420376
24	0x3f65c1ab	0.8974864
25	0x3f0b4b2c	0.5441158
26	0x3f2f7e2e	0.6855191
27	0x3eecd151	0.46253446
28	0xbf66c56f	-0.9014501
29	0xbf65173b	-0.8948857
30	0xbcd8a7fe	-0.026447292
31	0x3d229110	0.039689124
32	0x3d8c5000	0.06851196
33	0x3ead7385	0.33877197
34	0xbec57a0c	-0.38569677
35	0xbfae7309	-1.3628856
36	0xbf4963fa	-0.7866818
37	0xbd4c608e	-0.04989677
38	0x3f5cbc4d	0.86224824
39	0xbdcff2ce	-0.10153733
40	0x3deff6d6	0.11717002
41	0x3fb5bd48	1.4198389
42	0xbed606dd	-0.4180211
43	0x3f17cab8	0.592937
44	0xbe29c018	-0.16577184
45	0xbf5d3caf	-0.8642072
46	0x3ea6e96e	0.32599968
47	0x3e255441	0.16145422
48	0x3de9fdfe	0.11425398
49	0xbf0139bf	-0.5047874
50	0xbeb78705	-0.358452
51	0xbe2dba25	-0.1696554
52	0x3f286baf	0.6578931
53	0xbf5ac0a2	-0.85450184
54	0x3ec0d3e2	0.37661654
55	0xbdc0d1cb	-0.09415015
56	0x3e081870	0.13290572
57	0x3f46db09	0.7767797
58	0x3f555250	0.83328724
59	0x3e98cfd5	0.29846063
60	0x3fe375d4	1.7770333
61	0xbf34d882	-0.70642865
62	0xbf47333a	-0.7781254
63	0x3f1611f7	0.5862116
64	0xbf0505ba	-0.51961863
65	0x3dddcab5	0.10829679
66	0xbf372c00	-0.71551514
67	0x3bd8606a	0.0066032903
68	0xc004275a	-2.0649018
69	0x3ddcbf21	0.107786424
70	0xbf730723	-0.94932765
71	0xbf38d27e	-0.72196186
72	0x3fcbd4e9	1.592435
73	0x3ec962e3	0.39333257
74	0xbf0baa7d	-0.5455702
75	0xbe52c923	-0.2058454
76	0x3f7ef02b	0.9958522
77	0xbf14ca1a	-0.5812088
78	0x3e0ee6e4	0.13955265
79	0x3e8fee36	0.28111428
80	0xbe10c27d	-0.14136691
81	0xbf016980	-0.50551605
82	0x3e935a01	0.28779605
83	0xbfe74995	-1.806933
84	0xbf36b0bc	-0.71363425
85	0x3f1b82e8	0.6074662
86	0x3eb4ade0	0.35288906
87	0xbf93e45c	-1.1554065
88	0x3f7702cf	0.9648866
89	0x3fc1db99	1.5145141
90	0xbdc92316	-0.09821145
91	0x3eeb927a	0.4601019
92	0xbf144fcd	-0.57934266
93	0xbf608c2c	-0.87713885
94	0x3f4dad36	0.80342424
95	0x3e513848	0.20431626
96	0x3d6410a8	0.055679947
97	0xbf0c77a3	-0.5487005
98	0xbeada314	-0.3391348
99	0xbe7d2e8a	-0.24724784
100	0xbebc35ab	-0.36759695
101	0xbcbb4cb0	-0.022863716
102	0x3ea7e1bc	0.3278941
103	0xbea418ca	-0.32050163
104	0xbe145964	-0.14487225
105	0x3d100e32	0.035169788
106	0xbf6d69d6	-0.9273962
107	0xbdceffa1	-0.10107351
108	0xbf737d63	-0.951132
109	0xbe807c9e	-0.25095075
110	0x3f1b2bd9	0.6061378
111	0x3e54f5b1	0.20796849
112	0x3ef3cc89	0.47616985
113	0xbee4955c	-0.44645202
114	0x3e6b4f43	0.22979455
115	0xbeaf2f15	-0.34215608
116	0xbd54e4fc	-0.05197619
117	0xbefdea9a	-0.4959305
118	0x3e9fcd04	0.31211102
119	0xbe3feddb	-0.18743078
120	0xbdf4de73	-0.11956491
121	0x3f5dbe6b	0.8661868
122	0x3e96418e	0.2934689
123	0xbde5bf3c	-0.11218116
124	0xbe557150	-0.20844007
125	0xbd9c7450	-0.07639372
126	0xbf4c7e91	-0.79880625
127	0x3e044ba0	0.12919474
128	0x3f0300f5	0.51173335
129	0x3efb9d71	0.49143556
130	0xbe0f9c01	-0.14024355
131	0xbee79566	-0.4523117
132	0x3f217f11	0.6308451
133	0xbea68ccb	-0.32529292
134	0xbfd88cfb	-1.6918024
135	0xbf1c4848	-0.6104779
136	0xc00bd859	-2.1850798
137	0x3f4de886	0.8043293
138	0x3e7207c5	0.23635776
139	0x3fccaa4a	1.5989468
140	0xbea2b667	-0.31779787
141	0xbdedfa8e	-0.11620055
142	0xbb59d4c4	-0.003323839
143	0x3eb8dab8	0.3610437
144	0x3f2ba855	0.6705373
145	0xbf156dde	-0.5837077
146	0xbe215dbe	-0.15758416
147	0xbec0cf7b	-0.37658295
148	0xbecb6a7a	-0.39729673
149	0x3fc8d4b1	1.5689908
150	0x3ed4d882	0.41571432
151	0xbfd3e3f3	-1.655394
152	0xbf5d1525	-0.8636039
153	0xbfdc494e	-1.7209871
154	0x3e61856e	0.22023556
155	0x3ec248b7	0.37946102
156	0x3f11dd67	0.5697846
157	0xbf1b4b92	-0.60662186
158	0x3ebf512f	0.37366626
159	0xbf2651dd	-0.64968663
160	0x3f89de4c	1.0770965
161	0x3f169508	0.58821154
162	0xbe8618cc	-0.26190794
163	0x3f9275fe	1.1442258
164	0x3f829633	1.0202087
165	0xbf7b2608	-0.98104906
166	0xbf580040	-0.8437538
167	0xbe654820	-0.22390795
168	0x3e33e74c	0.17568702
169	0x3f1da598	0.615808
170	0x3f970034	1.1796937
171	0xbde1236a	-0.10993083
172	0xbc52f133	-0.012874889
173	0xbe246e3c	-0.16057676
174	0xbeb65ff5	-0.35620084
175	0x3ef73ff7	0.4829099
176	0x3fc291eb	1.5200781
177	0xbee5a0e4	-0.44849312
178	0xbf2c18e8	-0.67225504
179	0x3e545cd4	0.20738536
180	0x3f4d7623	0.8025839
181	0x3db7bc3b	0.08971449
182	0x3f3befeb	0.7341296
183	0x3d0d5ff8	0.03451535
184	0xbd8470cf	-0.06466829
185	0x3f26e3e6	0.65191495
186	0xbf40fd74	-0.7538674
187	0xbdc49d2a	-0.09600289
188	0xbf4f4a19	-0.8097244
189	0x3fb2f655	1.3981425
190	0xbf4c16ff	-0.7972259
191	0xbfbe4385	-1.4864355
192	0xbf3bcdad	-0.7336071
193	0xbfd33cd9	-1.6502944
194	0xbef126c8	-0.470999
195	0x3de48cea	0.1115969
196	0xbe635468	-0.22200167
197	0x3f05ff9b	0.5234315
198	0x3f0b97b8	0.5452838
199	0x3f400b95	0.7501767
200	0x3fbada6c	1.4597907
201	0x3e37e5c6	0.17958745
202	0xbd527ff7	-0.051391568
203	0x3e38e86d	0.18057413
204	0xbf9b04ca	-1.2110837
205	0xbf9690e3	-1.1762966
206	0xbf916e90	-1.1361866
207	0xbdb6df39	-0.08929295
208	0x3f877793	1.0583366
209	0x3f6f83a0	0.9356022
210	0xbe4b4b02	-0.19852832
211	0x3ed54172	0.41651493
212	0x3d9ee288	0.07758051
213	0xbfef8a27	-1.8714036
214	0x3e8d7bf6	0.27633637
215	0x3f320c81	0.6955033
216	0x3f683423	0.90704554
217	0xbf841e16	-1.0321681
218	0xbd8b47d3	-0.06800809
219	0x3e3883f3	0.18019085
220	0xbf844129	-1.0332385
221	0x3eed8228	0.46388364
222	0xbf4165a0	-0.7554569
223	0xbd69baeb	-0.057063024
224	0x3f4c0350	0.79692554
225	0xbf2ef9b0	-0.6834974
226	0x3e0e2cf3	0.13884334
227	0xbf267c46	-0.65033376
228	0xbf64b2de	-0.8933543
229	0xbf020ade	-0.5079783
230	0xbf982beb	-1.1888403
231	0x3e05d690	0.1307013
232	0xbe79b2dc	-0.24384636
233	0xbe2c8c09	-0.16850294
234	0xbdc445f5	-0.09583656
235	0x3e87a12a	0.26490146
236	0xbe2dae35	-0.16960986
237	0x3f45461c	0.77060103
238	0xbe77b697	-0.24190746
239	0xbe1c14c2	-0.15242293
240	0x3d7711cd	0.06031971
241	0x3e0bee9e	0.13665244
242	0xbeb2df57	-0.3493602
243	0x3dd112a0	0.102086306
244	0x3f0902f2	0.5352012
245	0xbe054387	-0.13014041
246	0xbf129db6	-0.572719
247	0x3f0da2a2	0.5532628
248	0x3ecc59d3	0.3991228
249	0xbe0bb7de	-0.13644359
250	0x3f00b857	0.5028128
251	0x3ea69beb	0.3254083
252	0x3fbc2ae0	1.4700584
253	0xbf1c06b2	-0.60947716
254	0x3ed3ad59	0.4134319
255	0xbfa44281	-1.2832795

plate_pos_model_v1/re_lu/Relu6_13;plate_pos_model_v1/batch_normalization_19/FusedBatchNormV3;plate_pos_model_v1/conv2d_15/BiasAdd/ReadVariableOp/resource;plate_pos_model_v1/conv2d_15/BiasAdd;plate_pos_model_v1/conv2d_31/Conv2D;plate_pos_model_v1/conv2d_15/Conv2D f4 [64]
0	0xbe97cfe4	-0.29650795
1	0x3df30bdb	0.118674956
2	0x3d05f8c0	0.03270793
3	0x3e4eacc5	0.20183094
4	0x3e0daff9	0.1383666
5	0xbccbb9c5	-0.024868855
6	0xbd4f6d28	-0.05064121
7	0x3e1a3e9a	0.15062943
8	0x3ccc5975	0.024945
9	0xbd79c608	-0.060979873
10	0xbde93737	-0.113874845
11	0xbdd77863	-0.10521009
12	0x3e5a8cab	0.21342723
13	0xbbe731f5	-0.007055516
14	0xbdcfb94c	-0.101427644
15	0xbe528325	-0.2055784
16	0x3d94ab4b	0.07259234
17	0x3d039760	0.032126784
18	0xbdd64b95	-0.10463635
19	0x3c84d82b	0.016216358
20	0xbca1dbc7	-0.019758118
21	0x3e56b4bc	0.20967382
22	0xbe071192	-0.13190296
23	0xbe284550	-0.1643269
24	0xbbe06c9d	-0.006848885
25	0xbea0af21	-0.31383613
26	0x3e4d0ec0	0.20025158
27	0x3acc8e65	0.0015606402
28	0xbdc2c218	-0.09509677
29	0x3e6c9134	0.23102266
30	0xbdff244a	-0.124580935
31	0xbd16b4af	-0.036793407
32	0xbd987b11	-0.07445348
33	0xbb333381	-0.002734393
34	0x3e0700b0	0.13183856
35	0x3b1a6b2e	0.002356242
36	0xbe3b6f84	-0.18304259
37	0x3ddd7439	0.10813183
38	0x3d06c88b	0.032906096
39	0xbd891ab7	-0.066945486
40	0x3deeb6da	0.1165597
41	0x3e462727	0.19350873
42	0xbe6b837b	-0.22999375
43	0x3d8b39c0	0.06798124
44	0x3d56300f	0.052291926
45	0xbd8f4cb2	-0.0699705
46	0xbd9026e6	-0.07038669
47	0x3cfe9798	0.031078145
48	0xbe0b1277	-0.13581263
49	0xbc810bd8	-0.015752718
50	0xbde6b26d	-0.11264501
51	0x3daf256e	0.08552061
52	0x3e047ed0	0.12939
53	0xbe319ae7	-0.17344247
54	0xbd967144	-0.073458225
55	0xbe6fa70a	-0.23403564
56	0x3cea9d63	0.028639501
57	0x3e1c81a1	0.15283825
58	0xbe28a115	-0.16467698
59	0xbcd83d20	-0.026396334
60	0x3de7454a	0.11292513
61	0xbdc883c9	-0.09790761
62	0x3e6e609f	0.23279046
63	0x3d14d1b6	0.03633281

plate_pos_model_v1/re_lu/Relu6_2;plate_pos_model_v1/batch_normalization_2/FusedBatchNormV3;plate_pos_model_v1/depthwise_conv2d/depthwise;plate_pos_model_v1/depthwise_conv2d/BiasAdd;plate_pos_model_v1/conv2d_24/Conv2D;plate_pos_model_v1/depthwise_conv2d/BiasAdd/ReadVariableOp/resource f4 [32]
0	0xbebbe06b	-0.36694655
1	0xbdcc493a	-0.09974904
2	0xbcc559f8	-0.024090752
3	0x3f304ea6	0.6887001
4	0xbf82898b	-1.0198225
5	0x3ea34934	0.31891787
6	0x3f41100a	0.754151
7	0xbec1dff8	-0.37866187
8	0xbe8b6ab3	-0.27229843
9	0xbe4b3c54	-0.19847232
10	0x3c900ad1	0.017583283
11	0x3f0a6c05	0.54071075
12	0xbeed6774	-0.4636799
13	0xbebb7d4f	-0.3661904
14	0xbf34501b	-0.7043473
15	0xbf3acfe1	-0.7297345
16	0x3f4124cd	0.7544678
17	0x3f052930	0.5201597
18	0xbf4c7677	-0.79868263
19	0x3c7db888	0.01548589
20	0x3e8968b0	0.26837683
21	0x3f1e6e61	0.61887175
22	0xbed326e3	-0.41240606
23	0x3f2139be	0.6297873
24	0x3f0d2fba	0.5515095
25	0xbf09319e	-0.53591335
26	0x3f1ad93e	0.60487735
27	0x3e45c5be	0.19313714
28	0x3f11e84b	0.56995076
29	0xbe45b4d8	-0.19307268
30	0xbf1cede0	-0.6130047
31	0x3ee9c81b	0.4566048

plate_pos_model_v1/batch_normalization_2/FusedBatchNormV3;plate_pos_model_v1/depthwise_conv2d/depthwise;plate_pos_model_v1/depthwise_conv2d/BiasAdd;plate_pos_model_v1/conv2d_24/Conv2D;plate_pos_model_v1/depthwise_conv2d/BiasAdd/ReadVariableOp/resource f4 [1, 3, 3, 32]
0	0x3ecff7b4	0.4061867
1	0x3fc4786f	1.5349253
2	0xbfaf0b52	-1.367533
3	0x3f2f6d97	0.68526596
4	0x3ef7a182	0.48365408
5	0x3f10366d	0.5633305
6	0xbe8450f9	-0.25843027
7	0x3f732ba3	0.9498846
8	0xbe8a9f16	-0.27074498
9	0xbf26d470	-0.65167904
10	0xbe0c09d7	-0.13675629
11	0x3f01b336	0.5066408
12	0x3e9154f6	0.28385133
13	0x3f9acf17	1.2094449
14	0x3ea2ca4a	0.3179496
15	0xbd823f01	-0.06359673
16	0xbdf7cd25	-0.12099675
17	0xbf8979b6	-1.0740268
18	0x3f07649a	0.5288788
19	0xc0047664	-2.069726
20	0xbefd9345	-0.4952642
21	0x3eecb91a	0.4623497
22	0x3f4a76c9	0.790875
23	0xbef1cb83	-0.4722558
24	0xbe6591ff	-0.22418974
25	0xbf0f63bc	-0.5601156
26	0xbf07b07e	-0.5300368
27	0xbf6128d4	-0.87952924
28	0xbf4efe2c	-0.80856586
29	0x3f850f05	1.0395209
30	0x3e1abe84	0.15111738
31	0xbefa4e3b	-0.4888781
32	0xbdcfde16	-0.101497814
33	0x3f84808d	1.035173
34	0x3f3035b8	0.6883197
35	0xc02eec53	-2.733174
36	0x3fe0c755	1.7560831
37	0xbdc2e722	-0.09516741
38	0x3ea13b63	0.3149062
39	0x3f378771	0.7169104
40	0x3f554b6e	0.8331822
41	0x3efb5424	0.49087632
42	0x3e7be762	0.24599984
43	0xbf5cd42a	-0.86261237
44	0xbd760cea	-0.06007091
45	0x3fdad0c2	1.7094958
46	0x3d1b6e03	0.037946712
47	0x3eb7781a	0.35833818
48	0xbf162305	-0.58647186
49	0xbf4f8c49	-0.81073433
50	0xbe77c153	-0.24194841
51	0xbec8dbff	-0.39230344
52	0xbe1291b2	-0.14313391
53	0xbf5d341e	-0.8640765
54	0xbf988d7b	-1.1918176
55	0xbf4e9eb4	-0.8071091
56	0xbda446d8	-0.08021325
57	0xbf91e5dd	-1.1398274
58	0xbead4402	-0.33840948
59	0x3f12fd29	0.5741754
60	0xbe57edbc	-0.21086782
61	0xbf553d43	-0.832966
62	0xbd01b771	-0.031669084
63	0xbef750c8	-0.4830382
64	0xbd8b1098	-0.067902744
65	0x3f4b5df1	0.7944022
66	0xc0221530	-2.5325432
67	0x3ef26e6f	0.4734988
68	0xbea0cc0b	-0.31405672
69	0xbf993a3f	-1.19709
70	0x3de07d24	0.10961369
71	0x3e6cc1ff	0.23120879
72	0x3deaeaf3	0.11470594
73	0x3ef67a2b	0.48140082
74	0xbf96b172	-1.1772902
75	0xbf4a7065	-0.7907775
76	0x3ebdb14e	0.37049335
77	0xbf154ffd	-0.5832518
78	0x3eafebd3	0.34359607
79	0x3dc6e1ed	0.09711061
80	0x3f7cd1e9	0.987578
81	0x3e845fac	0.25854242
82	0xbe9828aa	-0.29718524
83	0x3f95ab59	1.1692916
84	0xbf3b5dde	-0.73190105
85	0x3e6594cd	0.22420044
86	0x3f78ea10	0.9723215
87	0x3ef76e88	0.48326516
88	0xbeb88d5c	-0.3604535
89	0x3fadf13d	1.3589245
90	0xbf328cdd	-0.6974619
91	0x3f613503	0.87971514
92	0xbe994f4f	-0.2994332
93	0xbf141712	-0.578477
94	0x3f28688d	0.6578453
95	0xbe67f99d	-0.22653814
96	0x3de1cf80	0.110259056
97	0xbf868240	-1.0508499
98	0x3f9b05e0	1.2111168
99	0x3fc86726	1.5656478
100	0xbc26017a	-0.010132188
101	0xbf348032	-0.7050811
102	0xbedc39de	-0.430129
103	0xbed86bd4	-0.42269766
104	0xbe6607ef	-0.22463964
105	0xbeffde3d	-0.49974242
106	0x3f9d72a1	1.2300607
107	0x3f0c870f	0.54893583
108	0xbec68a91	-0.38777593
109	0x3c9be2d3	0.019029057
110	0x3f06fcde	0.52729595
111	0x3eb9c512	0.36283165
112	0xbf712a0f	-0.942048
113	0x3f4bf846	0.7967571
114	0x3e87bcde	0.26511282
115	0xbf61df58	-0.8823142
116	0xbf17df95	-0.59325534
117	0xbf2b8791	-0.6700373
118	0xbf3e4b6a	-0.7433382
119	0x3f90b0cb	1.1303953
120	0xbd0b6f22	-0.03404153
121	0x3df63aed	0.12022958
122	0x3f206c95	0.62665683
123	0xbffd0fdc	-1.9770465
124	0x3d7c6c3c	0.061626658
125	0x3e4bad24	0.19890267
126	0x3d333b12	0.043757506
127	0xbeb23a51	-0.34810117
128	0xbe4ba607	-0.19887553
129	0xbe03dd13	-0.12877302
130	0xbf1fa0fc	-0.6235502
131	0xbf2fec45	-0.68719894
132	0x3b2f4265	0.0026742455
133	0xbf96eda6	-1.1791275
134	0x3e048c8c	0.1294424
135	0xbeb2a9d6	-0.348952
136	0x3f34c5c6	0.7061428
137	0x3f0b6c62	0.54462254
138	0xbdb7f2f2	-0.08981885
139	0xbb648ad4	-0.0034872787
140	0xbec1c123	-0.37842664
141	0xbf2b8180	-0.66994476
142	0x3f57b725	0.8426383
143	0x3e9cf70d	0.30657235
144	0x3ea51c11	0.32247975
145	0xbf2cda53	-0.67520636
146	0x3ee9d370	0.45669127
147	0x3f0a99c6	0.5414089
148	0xbf4b18d3	-0.79334754
149	0x3e6b96c9	0.23006739
150	0xbf074d4a	-0.5285231
151	0xbfab7295	-1.3394343
152	0x3e706a45	0.23478039
153	0x3e8767bc	0.2644633
154	0x3e99b9f0	0.30024672
155	0x3ec5c54e	0.38627094
156	0xbf09af76	-0.5378336
157	0xbef64dba	-0.48106176
158	0x3d898997	0.06715696
159	0xbf052c20	-0.52020454
160	0xbd12cd94	-0.035840586
161	0x3ea48a04	0.32136548
162	0x3fa92015	1.3212916
163	0xbefdffcd	-0.49609223
164	0xbe31b44c	-0.17353934
165	0x3d14150a	0.036152877
166	0x3f354580	0.70809174
167	0x3d6506a8	0.05591455
168	0x3f94ca2f	1.1624202
169	0x3ea69d65	0.32541957
170	0x3f1846db	0.59483117
171	0xbf6cbd4c	-0.92476344
172	0xbe176b1e	-0.14786956
173	0xbf135a75	-0.575599
174	0xbf22496d	-0.6339329
175	0x3ec0791d	0.37592402
176	0xbdd16c9b	-0.10225793
177	0x3f1f1777	0.6214518
178	0xbe40d3b5	-0.1883076
179	0x3e6162af	0.22010301
180	0xbe69de11	-0.22838618
181	0xbf26a53f	-0.65095896
182	0x3fd505c4	1.6642385
183	0xbf50c13f	-0.8154487
184	0xbeb715a1	-0.3575869
185	0x3f4c4189	0.797875
186	0x3f4f6247	0.81009334
187	0x3f53e616	0.8277296
188	0xbdefaf92	-0.11703409
189	0xbf2a60fb	-0.6655423
190	0x3f252a3a	0.6451756
191	0xbf2cad4f	-0.6745195
192	0x3f616b53	0.8805439
193	0xbe4daf9d	-0.20086522
194	0x3ed55dd6	0.41673154
195	0xbf0738fe	-0.5282134
196	0x3e2a8d42	0.16655448
197	0x3f0ba01b	0.54541177
198	0xbf534d0b	-0.82539433
199	0x3f41073c	0.75401664
200	0xbe891b3f	-0.267786
201	0xbdd14118	-0.10217494
202	0xbf21bc94	-0.6317837
203	0x3f32d4ec	0.69856143
204	0x3ee1f5d8	0.44132876
205	0x3f32e191	0.6987544
206	0xbf66e922	-0.9019948
207	0x3de31396	0.1108772
208	0xbf51e741	-0.8199349
209	0xbf5f9715	-0.8733991
210	0xbec4844a	-0.3838218
211	0x3d3d4477	0.04620787
212	0x3ee1c1d7	0.440932
213	0xbe0e4c44	-0.1389628
214	0xbfc213a0	-1.5162239
215	0xbe0b7286	-0.13617906
216	0xbea63208	-0.32460046
217	0x3f617df0	0.8808279
218	0xbf6ac6cf	-0.9170961
219	0xbfba6c86	-1.4564369
220	0xbe7dad95	-0.24773248
221	0x3f8434e0	1.0328636
222	0xbe8edc7f	-0.279026
223	0x3f11d810	0.5697031
224	0x3ee50771	0.4473224
225	0xbf7e4cf0	-0.9933615
226	0xbd86be3a	-0.065792516
227	0xbd208e2f	-0.039198097
228	0x3e941d50	0.28928614
229	0x3f413c97	0.7548308
230	0xbf4cc997	-0.799951
231	0xbeeda6fc	-0.4641646
232	0xbf85b95b	-1.0447191
233	0x3ec62a48	0.38704133
234	0xbec1cdec	-0.37852418
235	0xbf362738	-0.71153593
236	0x3f0cdbaa	0.5502268
237	0xbf902a04	-1.1262822
238	0x3faaa504	1.3331609
239	0x3deb49c9	0.11488683
240	0xbee2d6bd	-0.44304457
241	0xbe150718	-0.14553487
242	0x3f24ad57	0.64326996
243	0x3d7e6832	0.062111087
244	0x3f966c72	1.1751845
245	0xbe956b7a	-0.2918356
246	0x3a7a2199	0.00095417496
247	0x3e83535c	0.25649536
248	0xbda7224e	-0.0816084
249	0xbf97de79	-1.1864768
250	0xbeb261a7	-0.34840128
251	0x3f72521e	0.9465655
252	0xbe8b75f3	-0.27238426
253	0x3e9fecf2	0.31235462
254	0x3dd359e6	0.10319881
255	0x3f20fb00	0.62882996

plate_pos_model_v1/re_lu/Relu6_14;plate_pos_model_v1/batch_normalization_20/FusedBatchNormV3;plate_pos_model_v1/depthwise_conv2d_6/depthwise;plate_pos_model_v1/depthwise_conv2d_6/BiasAdd;plate_pos_model_v1/conv2d_31/Conv2D;plate_pos_model_v1/depthwise_conv2d_6/BiasAdd/ReadVariableOp/resource f4 [64]
0	0xbec1a66e	-0.37822288
1	0x3ed557c3	0.4166852
2	0xbea88db4	-0.3292061
3	0x3f24819f	0.64260286
4	0xbdb54cc8	-0.088525355
5	0x3e8e9d6b	0.27854475
6	0x3ea5e0f7	0.32398197
7	0x3f2912b0	0.6604414
8	0x3f64f664	0.8943846
9	0xbf2f904b	-0.6857955
10	0xbebb11db	-0.3653706
11	0xbf0310f6	-0.51197755
12	0xbd8e9e10	-0.06963742
13	0xbf4e7320	-0.80644417
14	0xbe52ded6	-0.20592818
15	0xbf3288ea	-0.69740164
16	0xbe8bb33b	-0.2728518
17	0x3f3cd79b	0.7376649
18	0xbec75562	-0.3893233
19	0xbf2dafad	-0.67846185
20	0x3e4f4550	0.20241284
21	0xbe5f142c	-0.21785039
22	0xbe987ab3	-0.29781112
23	0xbec10b1c	-0.37703788
24	0xbe9e350b	-0.30899844
25	0xbeef3e90	-0.4672742
26	0x3f8fb149	1.1225978
27	0xbf0c692a	-0.5484797
28	0x3f14d501	0.5813752
29	0x3e814bb0	0.25253057
30	0xbebb68d4	-0.36603415
31	0x3ef5df73	0.4802204
32	0xbec50d8b	-0.38486895
33	0x3f484e88	0.7824483
34	0xbf6bd8aa	-0.9212748
35	0x3f4f967c	0.81088996
36	0xbedb0d6f	-0.42783687
37	0xbeb897df	-0.36053368
38	0x3f56500b	0.83715886
39	0xbf55c724	-0.8350699
40	0xbf49de9c	-0.788553
41	0x3f93efd2	1.1557562
42	0xbe9d87b6	-0.30767602
43	0x3f364fd0	0.71215534
44	0x3ebad328	0.36489224
45	0x3e728ce1	0.23686554
46	0xbf0619f7	-0.5238337
47	0x3f438408	0.7637334
48	0xbe9c3ba2	-0.30514246
49	0xbf3465cf	-0.7046785
50	0xbc738052	-0.014862137
51	0xbf0ab244	-0.5417826
52	0xbe737ab8	-0.23777282
53	0xbf0a1751	-0.5394183
54	0xbe8092af	-0.2511191
55	0xbebc8a9e	-0.36824507
56	0xbed51b8b	-0.41622576
57	0xbe14f6da	-0.14547291
58	0xbee2b7a3	-0.4428073
59	0xbd40cdae	-0.04707115
60	0x3f81b2ef	1.0132731
61	0xbeecfc62	-0.46286303
62	0x3f9ff0c8	1.2495356
63	0x3f392267	0.7231812

plate_pos_model_v1/batch_normalization_20/FusedBatchNormV3;plate_pos_model_v1/depthwise_conv2d_6/depthwise;plate_pos_model_v1/depthwise_conv2d_6/BiasAdd;plate_pos_model_v1/conv2d_31/Conv2D;plate_pos_model_v1/depthwise_conv2d_6/BiasAdd/ReadVariableOp/resource f4 [1, 3, 3, 64]
0	0x3d87c371	0.06629074
1	0x3f28414a	0.65724623
2	0x3f7119b2	0.9417983
3	0x3ee17a24	0.44038498
4	0x3ea443ac	0.3208288
5	0xbe5ab96b	-0.21359794
6	0xbe05de11	-0.13072993
7	0xbe94cc00	-0.2906189
8	0xbe3e519c	-0.18585819
9	0x3f289ebd	0.65867215
10	0xbe2f20ca	-0.17102352
11	0x3ec190b4	0.37805712
12	0x3eba4d99	0.36387327
13	0x3e903f79	0.28173426
14	0xbd507112	-0.050889082
15	0x3f0036ed	0.5008381
16	0x3e9128f4	0.28351557
17	0xbf316760	-0.6929836
18	0x3d88ee2e	0.06686054
19	0x3f3078be	0.6893424
20	0xbed32fd2	-0.41247422
21	0xbddad877	-0.10685819
22	0xbd7d4749	-0.06183556
23	0x3e32b383	0.17451291
24	0x3e3d241d	0.18470807
25	0xbd133ade	-0.035944812
26	0xbe8896d2	-0.26677567
27	0xbbffffe1	-0.0078124856
28	0xbcd4808f	-0.025940208
29	0x3f46c589	0.77645165
30	0x3edec73a	0.43511373
31	0xbedd421a	-0.43214494
32	0xbe436969	-0.1908318
33	0x3d0ce5e9	0.034398947
34	0x3ef15326	0.4713375
35	0xbeb952a6	-0.36195868
36	0x3f29a2b6	0.662639
37	0x3d75f7c2	0.060050733
38	0xbee673b5	-0.45010152
39	0x3f431d08	0.76216173
40	0xbe8d5204	-0.27601635
41	0xbd2a35ff	-0.0415554
42	0xbea3e7ff	-0.32012936
43	0xbe8d913c	-0.27649868
44	0xbed033b7	-0.40664455
45	0xbe03f771	-0.1288736
46	0xbf153e94	-0.5829861
47	0xbe42a94a	-0.19009891
48	0x3f0b1aee	0.54337966
49	0x3eb89356	0.36049908
50	0xbe8ed1d7	-0.2789447
51	0x3ebecdb9	0.3726633
52	0x3eb36a94	0.3504225
53	0x3e0e2aa6	0.13883457
54	0x3ef949c2	0.48689085
55	0x3eaf1095	0.3419234
56	0x3ea40bd8	0.32040286
57	0x3eb76811	0.35821584
58	0x3e45b0e8	0.19305766
59	0x3e18ce4a	0.14922443
60	0xbe9cf0c2	-0.30652434
61	0x3e90c34c	0.28274
62	0xbd2c24da	-0.042027332
63	0xbdc22fa9	-0.09481747
64	0xbe70cbae	-0.23515198
65	0x3e2a857a	0.1665248
66	0x3ed6564e	0.4186272
67	0x3e622047	0.22082625
68	0x3ec91b0e	0.39278454
69	0xbec7eba1	-0.39046958
70	0xbd59ef15	-0.053206522
71	0xbe9ae85d	-0.30255404
72	0xbe93c872	-0.28863865
73	0xbdec5213	-0.11539092
74	0x3e97f425	0.29678455
75	0x3f05cf99	0.52269894
76	0x3eddfb07	0.4335558
77	0x3e24d23c	0.16095823
78	0x3df04e43	0.11733677
79	0xbe071694	-0.13192207
80	0x3cc61d9c	0.02418404
81	0xbe0fcddc	-0.14043373
82	0x3ed463ab	0.4148229
83	0x3ef4c916	0.47809666
84	0xbe96ab24	-0.29427445
85	0xbdec4038	-0.11535686
86	0x3ee9d41b	0.45669636
87	0x3f000a25	0.5001548
88	0x3ea0f56a	0.31437236
89	0x3d96cbc2	0.073630825
90	0xbeb0e4b7	-0.34549496
91	0x3e1abb2a	0.1511046
92	0xbd8adc2d	-0.067802764
93	0x3ee5868f	0.44829223
94	0xbdef631a	-0.11688824
95	0xbe841648	-0.2579825
96	0xbea7f94d	-0.3280739
97	0xbe1c1dc7	-0.15245734
98	0x3eea03d2	0.4570604
99	0xbe05c0ad	-0.13061781
100	0x3f1215dc	0.57064605
101	0x3d4b7a93	0.049677443
102	0xbe20878e	-0.1567671
103	0x3e7e9a52	0.24863556
104	0xbd2a9a0a	-0.04165081
105	0xbf205725	-0.6263297
106	0x3f8f4daf	1.1195582
107	0xbf653706	-0.89537084
108	0xbe984171	-0.29737428
109	0xbe5a034d	-0.21290322
110	0x3eae2aee	0.34017128
111	0xbe4fbb7d	-0.20286365
112	0x3e9a81a1	0.30177024
113	0x3f2f9ac0	0.68595505
114	0xbedc0989	-0.42976025
115	0x3e9c965c	0.30583465
116	0x3d544bce	0.051830105
117	0xbf1a09d3	-0.6017124
118	0x3dcef5a4	0.10105446
119	0x3dbc35df	0.091899626
120	0x3ee64090	0.44971132
121	0xbe649a25	-0.22324426
122	0x3d1050f3	0.03523345
123	0x3eb90766	0.36138457
124	0xbdae6e0b	-0.08517083
125	0x3f036179	0.51320606
126	0xbe50ab42	-0.2037783
127	0xbdd6447c	-0.10462281
128	0x3f24a757	0.6431784
129	0xbf21e519	-0.632402
130	0x3f0063ee	0.5015248
131	0x3cc7d605	0.024394045
132	0x3e73e71d	0.23818631
133	0xbeb01a8b	-0.3439525
134	0xbd9b7861	-0.0759132
135	0xbe047cd6	-0.12938246
136	0xbcbe156b	-0.023203572
137	0x3e8fbb26	0.2807247
138	0x3f298128	0.662127
139	0x3e8cdd47	0.2751257
140	0x3e71a2ad	0.23597212
141	0x3edd54ae	0.43228668
142	0x3f21193a	0.6292912
143	0x3d90fa9a	0.070790485
144	0x3e1f91b2	0.15582922
145	0x3d3df474	0.046375707
146	0xbdabb1c9	-0.08383519
147	0x3f1bf9d1	0.60928065
148	0xbcce3291	-0.025170596
149	0x3eb2d0c3	0.34924898
150	0xbe9eb7f8	-0.30999732
151	0x3f21c554	0.63191724
152	0xbdeaaebb	-0.114591084
153	0x3e9b553d	0.3033847
154	0xbea7b97e	-0.32758707
155	0x3ed5e7f1	0.4177852
156	0xbf080130	-0.5312681
157	0xbf165637	-0.58725303
158	0x3df3d614	0.119060665
159	0x3e0b2e5b	0.13591902
160	0x3ecbb067	0.39783022
161	0xbe1685ec	-0.14699525
162	0x3e874b0a	0.26424438
163	0xbe44b790	-0.19210649
164	0x3f39a5a9	0.725184
165	0xbd1f2d57	-0.0388616
166	0xbdaf4013	-0.08557143
167	0x3db97767	0.09055977
168	0x3f363491	0.7117396
169	0xbf5c4370	-0.860404
170	0xbf446205	-0.76712066
171	0xbf04c924	-0.51869416
172	0xbe7c3bb0	-0.24632144
173	0xbe143647	-0.1447383
174	0x3e46d237	0.19416128
175	0xbd80c664	-0.0628784
176	0x3e9906ce	0.29888004
177	0x3da6b501	0.081399925
178	0xbea60e07	-0.32432577
179	0x3c161a7f	0.009161591
180	0xbe1e1791	-0.15438677
181	0x3e175ca5	0.14781435
182	0x3ecd1932	0.40058285
183	0x3ee04102	0.43799597
184	0x3e87d51d	0.2652978
185	0xbe4b3a78	-0.19846523
186	0x3f1039ca	0.5633818
187	0xbf34be00	-0.70602417
188	0xbdaf6922	-0.08564974
189	0x3ea0aac2	0.31380278
190	0xbe91eea9	-0.28502396
191	0xbcd3a895	-0.025837222
192	0xbea28e39	-0.31749132
193	0x3f0a7b4f	0.54094404
194	0x3ea2fec0	0.31834984
195	0x3e0d7218	0.13813055
196	0xbca397c3	-0.019969827
197	0x3c901195	0.017586509
198	0xbe4f177a	-0.202238
199	0xbe665e8b	-0.22497003
200	0xbeca5339	-0.3951662
201	0x3e92e0b3	0.28687057
202	0x3e57c54c	0.21071357
203	0xbe7b5add	-0.2454638
204	0xbdff3ef9	-0.12463183
205	0x3e4d4cb9	0.20048799
206	0xbe08c78b	-0.1335737
207	0x3f36d209	0.7141424
208	0x3ed5c14f	0.41749045
209	0xbf475207	-0.7785954
210	0x3d2905b3	0.0412652
211	0x3eb83702	0.35979468
212	0xbdb5ee6e	-0.088833675
213	0xbe2e7350	-0.17036176
214	0xbd9a287f	-0.07527255
215	0xbdfe64cf	-0.124215715
216	0x3cbd5db0	0.023115963
217	0x3e8c500e	0.27404827
218	0xbe5ea3e3	-0.21742205
219	0x3e2d5928	0.16928542
220	0xbe25c693	-0.16189031
221	0x3f6f7ca2	0.9354955
222	0x3edc3d87	0.43015692
223	0xbeaf4b87	-0.3423731
224	0x3e0d2503	0.1378365
225	0xbea09e84	-0.31370938
226	0x3e7d87da	0.24758855
227	0xbe319a60	-0.17344046
228	0x3f237287	0.6384663
229	0x3e374428	0.17897093
230	0xbf1f479d	-0.6221865
231	0x3ebdd938	0.37079787
232	0x3f03ebf3	0.51531905
233	0xbe56f4b7	-0.20991789
234	0xbf391d45	-0.72310287
235	0x3d6acf77	0.05732676
236	0xbe261bff	-0.16221617
237	0xbecf691d	-0.40509883
238	0x3edda47e	0.4328956
239	0xbeea7287	-0.45790502
240	0xbe83f306	-0.2577135
241	0x3e685da0	0.22691965
242	0xbea7a598	-0.32743526
243	0x3e83fa35	0.2577683
244	0x3eb74345	0.3579351
245	0x3e1539af	0.14572786
246	0x3b3358e1	0.0027366208
247	0xbd5dbfcf	-0.054138
248	0x3e0a0c2a	0.13481203
249	0x3e9291fc	0.28627002
250	0xbe403158	-0.18768823
251	0xbe2b46f9	-0.16726293
252	0xbed627bf	-0.418272
253	0xbd1a84ef	-0.03772443
254	0xbed4b5b7	-0.41544887
255	0xbe2fae2e	-0.17156288

plate_pos_model_v1/re_lu/Relu6_15;plate_pos_model_v1/batch_normalization_22/FusedBatchNormV3;plate_pos_model_v1/conv2d_17/BiasAdd/ReadVariableOp/resource;plate_pos_model_v1/conv2d_17/BiasAdd;plate_pos_model_v1/conv2d_31/Conv2D;plate_pos_model_v1/conv2d_17/Conv2D f4 [64]
0	0xbe04f790	-0.12985063
1	0x3d90b934	0.07066575
2	0xbe4226a7	-0.18960057
3	0x3e448124	0.19189888
4	0x3da12473	0.0786828
5	0xbd21bd05	-0.039486904
6	0xbd2e7ee2	-0.042601474
7	0xbe662b1d	-0.22477384
8	0x3e0cea98	0.13761365
9	0x3dd199ea	0.10234435
10	0xbddb32ac	-0.10703024
11	0xbd7419a8	-0.05959478
12	0xbd88f4fa	-0.066873506
13	0x3d9731bd	0.07382534
14	0xbde56bb7	-0.112021856
15	0x3d9f8af9	0.07790179
16	0x3e5b1e85	0.21398361
17	0x3e6fffc9	0.23437418
18	0x3d5c286d	0.05374949
19	0xbb9db062	-0.0048122862
20	0xbd8536b2	-0.06504573
21	0x3e10a750	0.14126325
22	0x3e90c301	0.28273776
23	0x3d325111	0.043534342
24	0xbdb3c0b5	-0.0877699
25	0xbe767619	-0.24068488
26	0xbbcb4b54	-0.006204048
27	0x3d775e1d	0.060392488
28	0x3db28fd7	0.087188415
29	0xbe0150dc	-0.12628502
30	0x3e00044c	0.12501639
31	0x3e1574ef	0.14595388
32	0xbd51cf95	-0.051223356
33	0x3d8b2737	0.06794589
34	0x3e1090a6	0.14117679
35	0xbe828abc	-0.2549647
36	0xbe57bd2b	-0.21068256
37	0x3dd20748	0.10255295
38	0x3e1521d5	0.14563687
39	0x3d02a7dc	0.031898364
40	0x3da5d463	0.0809715
41	0x3e7f20bb	0.2491483
42	0xbc6c46e6	-0.0144212
43	0xbd90063f	-0.07032441
44	0x3e403c66	0.1877304
45	0xbde6993c	-0.11259696
46	0xbdf2cac8	-0.11855084
47	0x3e7185dc	0.2358622
48	0x3d834a4f	0.064106576
49	0x3dd67823	0.10472133
50	0xbd680d47	-0.056653287
51	0xbd874264	-0.0660446
52	0x3dc48fa7	0.09597712
53	0xbe011e9e	-0.12609336
54	0x3e8435bf	0.25822255
55	0xbd9db8e1	-0.077012785
56	0xbdf83abb	-0.12120577
57	0x3b9ffb99	0.0048822877
58	0x3e2eb1be	0.17059991
59	0x3d843d50	0.06457007
60	0xbda00a08	-0.07814413
61	0xbe981882	-0.29706198
62	0x3d8e33b8	0.06943458
63	0xbb3ff7c2	-0.0029291962
