app/src/main/assets/model1.tflite (tflite, 278736 bytes, 85 tensors)

model/batch_normalization_21/FusedBatchNormV3;conv2d_16/bias;model/conv2d_16/BiasAdd;model/conv2d/Conv2D;model/conv2d_16/Conv2D f4 [32]
000000 3e 6e fe 3d 79 5f 52 bf e3 28 71 3e 21 94 c2 3e
       0.12423371 -0.8217693 0.23550753 0.38003638
000010 5a 10 03 be 67 5d 86 be c1 0b 7f bb 80 be c6 be
       -0.12799206 -0.26243135 -0.0038916918 -0.38817215
000020 55 f4 91 3e aa 04 fc be 72 14 97 bd c6 b3 2a 3e
       0.28506723 -0.49222308 -0.073769465 0.1667014
000030 0a ce 57 be f4 88 49 bd d9 a5 c9 be ee 59 80 3d
       -0.21074691 -0.049202874 -0.39384344 0.06267153
000040 42 41 9e be 12 3a 8d be ec 57 b8 be 0d 32 f6 be
       -0.30909163 -0.27583367 -0.3600458 -0.4808506
000050 63 ff 90 3e 38 6b e1 3e 5c bb 09 3e 2d 36 68 be
       0.28319845 0.44027114 0.13450378 -0.22676916
000060 89 d4 8d be 68 57 a3 3c 0a d8 73 bf 7a 62 18 be
       -0.27701214 0.01993914 -0.95251524 -0.14881316
000070 b7 df e9 3e 7e 35 62 3e 39 4e be bd 37 71 ac be
       0.45678493 0.22090718 -0.092922635 -0.33680126

model/batch_normalization_20/FusedBatchNormV3;model/depthwise_conv2d_6/depthwise;model/depthwise_conv2d_6/BiasAdd;model/conv2d_9/Conv2D;depthwise_conv2d_6/bias f4 [64]
000000 b0 ed d7 be 09 d0 1b 3f ce f7 af bd 92 66 05 3f
       -0.4217353 0.6086431 -0.08592187 0.52109635
000010 c9 53 01 bf 56 51 34 be 34 51 94 be 1e c6 fb 3e
       -0.5051847 -0.17609152 -0.28968203 0.4917459
000020 1a b0 2f 3f 4e 8a f2 bd 22 42 03 3e 75 85 42 3e
       0.68628085 -0.11842786 0.12818196 0.18996222
000030 50 ff 95 be 2a e3 64 bf b3 92 56 be 9a d3 e6 be
       -0.2929635 -0.89409125 -0.20954399 -0.45083314
000040 c8 b0 a5 be ca 79 02 bf 2b bf 6a be 5b 24 63 be
       -0.32361436 -0.50967085 -0.22924487 -0.22181837
000050 01 37 14 3f 0b 76 e2 3e 26 dc 43 3f f0 c0 50 3f
       0.5789643 0.44230685 0.76507795 0.815444
000060 04 e3 4f 3f 57 9b 66 3f 7a 57 56 3e 06 c7 be 3f
       0.81205773 0.9008078 0.20931807 1.4904487
000070 95 a8 d8 be ee 79 82 3f 7e 3b 21 3f 00 05 a6 3e
       -0.42316118 1.019346 0.629814 0.3242569
000080 14 b1 72 be b3 2c 54 bf 97 e0 b0 be 6c 92 b8 3b
       -0.23700362 -0.82880706 -0.34546348 0.005632689
000090 5a f7 16 bf 10 b1 25 be 3e d8 0c bf b4 c7 82 be
       -0.5897118 -0.16180825 -0.5501746 -0.25542986
0000a0 73 eb 69 bf 79 bb 32 3e 58 ff bb 3e 6e b2 92 bf
       -0.9137489 0.17454328 0.3671825 -1.1460702
0000b0 d4 6a a2 be fd 32 ac be 8c 01 17 bf d0 48 bc 3e
       -0.31722128 -0.3363265 -0.58986735 0.36774302
0000c0 b5 ed 79 3f 57 f7 6c 3f b4 57 1b 3f 41 18 91 3d
       0.9762834 0.9256491 0.606807 0.07084704
0000d0 27 1e 3c 3e 13 28 30 3f 33 c5 1e be e8 57 47 bf
       0.18370877 0.6881115 -0.15504913 -0.7786851
0000e0 44 c8 a6 be 4b 40 40 3f 79 ff 18 3f 27 b8 27 3e
       -0.32574666 0.75098103 0.5976482 0.16378842
0000f0 31 32 b2 3e 76 1b 44 bf d5 74 e1 be 1f 68 1d 3f
       0.34803918 -0.766044 -0.44034448 0.61487

model/batch_normalization_20/FusedBatchNormV3;model/depthwise_conv2d_6/depthwise;model/depthwise_conv2d_6/BiasAdd;model/conv2d_9/Conv2D;depthwise_conv2d_6/bias1 f4 [1, 3, 3, 64]
000000 d9 37 9d be 0e 5b 59 be 9f fe 29 3f 2c 03 9a be
       -0.3070667 -0.21226141 0.66404146 -0.30080545
000010 f2 f4 3a be d7 81 0e 3e f5 c4 65 be 31 67 8f bd
       -0.18257502 0.13916717 -0.22438414 -0.07002104
000020 ee 24 92 bd 03 4d 84 3f 80 ff 18 3f a6 97 15 3f
       -0.0713595 1.0336002 0.5976486 0.5843452
000030 f7 6f 27 3f 0e 28 81 3f 1a 0a 38 bf 0f f2 06 bf
       0.6540522 1.0090349 -0.71890414 -0.527131
000040 05 2e 0e be 80 86 f4 3e 11 19 8f 3f 4b d7 09 bf
       -0.13884743 0.47758865 1.1179525 -0.53844136
000050 0f 7c 56 bf e8 c8 14 bf 10 3e 00 bf 22 98 de be
       -0.8378305 -0.5811906 -0.500947 -0.43475443
000060 26 ad 59 bf 53 d7 4d 3e d0 0d ab be e9 91 ce bf
       -0.8502983 0.20101671 -0.33408976 -1.6138278
000070 0a a5 d3 3f 9b 33 7e bf 9d 1a ce be 1b 96 36 be
       1.6534741 -0.99297494 -0.4025468 -0.17830698
000080 58 8a b2 be 38 3e 19 bf 1c 9f 4b bf d2 08 7d be
       -0.34871173 -0.59860563 -0.79539657 -0.24710396
000090 ec fd aa be 36 9e fd bd 07 16 6d 3e 74 5c 10 3f
       -0.33396852 -0.12383692 0.23152934 0.5639107
0000a0 aa cd c7 3f 9e d1 ef bd 10 d8 19 3f b8 f3 7d 3f
       1.5609639 -0.11709903 0.6009531 0.9920001
0000b0 9c d8 f2 3d 72 0f 24 3f 3e a3 02 3f eb 8f 16 3f
       0.11857721 0.6408607 0.5103034 0.5881335
0000c0 64 2d f1 be b3 0f 33 3d f1 16 f0 be 39 ac bc be
       -0.47104943 0.043716144 -0.46892503 -0.36850145
0000d0 f4 c5 60 bf db 5c 0c bf 7d 00 21 3b ab 77 b0 3f
       -0.8780205 -0.54829186 0.0024566941 1.378652
0000e0 3b 55 8f 3f 79 9e 08 be 8a 96 e2 be b4 c7 c7 be
       1.1197885 -0.13341703 -0.44255477 -0.3901955
0000f0 fb 00 86 3d eb 80 ad 3f ff c9 0d 3f 6f 7d 41 bf
       0.06543156 1.3554968 0.55386347 -0.7558202
000100 6b 5e 34 3e 4e 1e d4 3d b5 99 68 3f 33 af d1 36
       0.17614143 0.10357343 0.9085954 6.2490813e-06
000110 94 a3 8f 3f 40 bd 46 3f b1 92 55 be 24 97 aa 3d
       1.1221795 0.7763252 -0.2085674 0.08329609
000120 a7 44 09 bf 98 06 74 3e b9 30 81 3e 28 20 bc 3e
       -0.5362038 0.2383064 0.25232485 0.36743283
000130 13 de 02 3f c4 bc 68 bf 90 e4 4b bf 0c bc d9 3c
       0.5112011 -0.90913033 -0.79645634 0.026578926
000140 86 50 27 3d 26 32 27 3f 8f c4 02 3e 1f 42 3f be
       0.040848278 0.65310895 0.12770294 -0.18677567
000150 70 36 85 be ab ad e7 be 96 b5 48 bf 14 2a 35 3e
       -0.26018095 -0.45249686 -0.7840208 0.17691833
000160 78 e0 83 be a5 96 2b be 5f 34 29 3d 57 49 3f be
       -0.25757194 -0.16756685 0.04130971 -0.1868032
000170 86 6e 8a 3f 43 32 4e 3e 36 0b 73 be 40 25 cf be
       1.0814979 0.20136361 -0.23734745 -0.40458107
000180 8e 37 9c bd bf 47 c7 bd f9 2b 1e 3f 0c dd e0 be
       -0.07627784 -0.09730481 0.61785847 -0.43918645
000190 45 29 13 be 8d 3e 8a 3f 96 20 ec 3e cd c3 27 be
       -0.14371212 1.0800339 0.4611861 -0.16383286
0001a0 9b ec b1 3f a4 cd b5 3d 41 5b 2b bf 82 29 0c 3f
       1.3900331 0.088771135 -0.6693612 0.54750836
0001b0 0a 9c 61 3f 4e de be be 59 e6 20 3e 4d fd a4 be
       0.8812872 -0.3727898 0.1571287 -0.32224503
0001c0 16 ec 48 bc 18 b9 17 be f0 1a 64 be a0 f4 2a bf
       -0.0122633185 -0.14816701 -0.22275901 -0.6677952
0001d0 fd fc 17 bf 01 5a 5d be c4 5d b8 3e 43 f8 80 3f
       -0.59370404 -0.21616365 0.36009037 1.0075763
0001e0 52 37 f2 be e2 78 21 be ae 73 9d be 74 af 85 be
       -0.4730783 -0.1576877 -0.3075232 -0.26110423
0001f0 82 b0 9a bd 85 81 0f 3e 78 71 c4 3e 60 88 24 3e
       -0.075531974 0.14014252 0.3836782 0.16067648
000200 c3 df 94 bc 66 17 05 bf 30 c7 16 bf 9a a7 22 3f
       -0.018173104 -0.5198883 -0.58897686 0.6353699
000210 f1 c8 56 3f df 47 55 3f 1d 29 dc be c7 d6 7d 3e
       0.8390036 0.8331279 -0.43000117 0.24788962
000220 7b 03 2b be 33 65 2a bf 44 9e 31 be d8 0a 8d bf
       -0.16700546 -0.6656067 -0.1734553 -1.1018934
000230 79 15 59 3f 1b db f2 bd 10 c9 08 bf 7d 16 b9 3e
       0.8479839 -0.11858197 -0.534318 0.3614997
000240 70 c5 44 3f a0 63 f9 3e 24 71 10 be 6b 2e 9e 3e
       0.76863766 0.4870882 -0.1410566 0.3089479
000250 df 38 c1 bd 1e 61 b2 3a be 85 5b be ac bb c9 bd
       -0.094346754 0.0013609265 -0.21437737 -0.09850249
000260 07 10 d3 3c b4 f8 80 bf 0b 7f 4c bf d8 1a 86 be
       0.025764478 -1.0075898 -0.7988135 -0.26192355
000270 66 5f f4 3e 76 7f 2b bf a5 4f 7f 3d c0 38 3f bf
       0.47729033 -0.66991365 0.062331814 -0.7469597
000280 85 e1 a1 be 97 8a 9d 3d 0b 21 45 be c6 b8 6e 3d
       -0.3161737 0.076924495 -0.19250886 0.058281682
000290 08 35 1d 3f e2 a2 bf bd 35 08 c8 3e 27 61 b2 be
       0.61409044 -0.09357239 0.3906876 -0.34839746
0002a0 16 b9 5a bd 8c 16 83 3f ee 47 63 bf f1 44 a5 3e
       -0.053399168 1.0241256 -0.8878163 0.3227916
0002b0 55 3f 81 3f 4b 2d b1 40 50 99 15 be c2 9b f8 be
       1.0097452 5.536779 -0.14609265 -0.48556334
0002c0 4a 7a 48 bd 32 2d 1c be bc c2 28 bf 61 90 63 bd
       -0.04894475 -0.15251616 -0.6592214 -0.055557612
0002d0 4f ad 9e 3b af 4d 4b be 01 30 2f 3f 21 fd 91 3e
       0.0048424373 -0.19853853 0.68432623 0.28513435
0002e0 21 db 80 bf dc c9 b8 3d d6 b6 d7 3c f9 4c af be
       -1.0066873 0.090228766 0.0263323 -0.34238413
0002f0 60 43 a9 be 8a 94 56 3d f1 9b 21 3f 28 e5 81 3e
       -0.33059216 0.05238775 0.6312857 0.25370145
000300 da b5 69 3f de 5c 75 be f8 b1 8c 3e ee a7 77 be
       0.9129311 -0.23961207 0.2747953 -0.24185154
000310 08 89 bd 3f da e2 44 be 55 4e bb 3e 19 f0 2d be
       1.4807444 -0.19227162 0.365832 -0.16986121
000320 08 70 9e be ff e5 d5 3d 76 30 da 3e 92 45 97 3d
       -0.30944848 0.10444259 0.42615098 0.07386316
000330 d3 c3 8d 3f e3 04 bd 3f 29 67 8c 3f 9e 80 2d 3e
       1.1075386 1.4767116 1.0968982 0.16943595
000340 1e 51 1f bf 4f cb 03 3f 57 11 a4 3e 87 d9 06 be
       -0.6223315 0.514821 0.3204448 -0.13168918
000350 42 12 90 3f 53 8b c2 bd 31 01 54 3f 1d 25 50 bf
       1.1255572 -0.0949923 0.8281432 -0.8130663
000360 32 59 97 be 77 be c3 be d1 e4 63 be 45 0b 3f be
       -0.29560238 -0.3823125 -0.22255255 -0.18656643
000370 f5 d8 f4 bd f3 92 e3 be 55 7e 4f bb ba 45 3e bf
       -0.11955444 -0.4444805 -0.0031660993 -0.74325144
000380 e5 55 ff be e9 6f 29 3e 16 3c a9 3f ca fa 85 be
       -0.4987022 0.16546597 1.3221462 -0.261679
000390 a0 ef 1e 3f ec a2 3c 3d 44 60 1c bd 86 78 be 3f
       0.6208439 0.046053812 -0.038177744 1.4880531
0003a0 5b 13 95 3e 16 9d 02 bf fa d0 65 3f 79 6b 94 3e
       0.2911633 -0.51020944 0.89772 0.28988245
0003b0 61 2c 13 3f cc b0 d1 3f 64 27 72 3f 03 b8 e7 be
       0.5748959 1.6382079 0.94591355 -0.45257577
0003c0 16 fd 1e be 75 60 b1 bd 59 99 8e 3e ab b7 e2 be
       -0.15526232 -0.08660976 0.2785137 -0.44280753
0003d0 e5 91 e6 3e 5b a7 cd be 30 e8 23 bf f7 2d c0 3e
       0.45033184 -0.40166745 -0.64026165 0.37535068
0003e0 21 20 3b 3f ee dc a0 be 4f 6e 12 bf 73 75 fd be
       0.730959 -0.31418556 -0.5719957 -0.4950367
0003f0 0f 50 d8 be f6 f9 74 3f ad 93 06 3d ce c1 e0 be
       -0.4224858 0.9569391 0.03285568 -0.4389786

model/batch_normalization_19/FusedBatchNormV3;conv2d_15/bias;model/conv2d_15/BiasAdd;model/conv2d_9/Conv2D;model/conv2d_15/Conv2D f4 [64]
000000 92 8e 1d 3d 58 30 38 3d d1 13 be be c3 19 e1 3d
       0.038466044 0.04496798 -0.37124494 0.10991242
000010 3c 03 05 bd 41 b4 94 bc 64 9d 56 be 17 17 f4 bd
       -0.032473788 -0.018152358 -0.20958477 -0.119184665
000020 c1 5c 17 3e af 31 52 3d 6e 4b c8 bc 4d 9f ad be
       0.14781477 0.051316913 -0.02445003 -0.339106
000030 9b 82 84 bd 9a 26 0b be fa 5a 86 bd a2 2b 6f be
       -0.064702235 -0.13588944 -0.06560321 -0.23356488
000040 1d 52 17 bf 37 92 36 be 28 3f 49 be bc 4e 19 bf
       -0.5910967 -0.17829214 -0.19652998 -0.59885764
000050 87 67 aa 3e 21 6b 8d be 4d 37 a8 3e 84 34 a0 3e
       0.3328211 -0.27620795 0.3285469 0.31290066
000060 5d d7 7e 3e 25 9d 4f bd 6c 0c d8 3a d1 16 c1 3e
       0.24886842 -0.050686974 0.0016483194 0.3771272
000070 26 43 82 be d9 44 93 be 88 30 29 3e 8d 7d a3 3d
       -0.25441855 -0.28763464 0.1652242 0.07982931
000080 4d 02 33 bd 7e 59 1c be 98 2b fd be 97 b5 da 3d
       -0.043703366 -0.15268514 -0.49447322 0.10679167
000090 6b fa 9e be e5 4e 8a be 80 0a 5f be 5e 67 86 bd
       -0.3105043 -0.27013317 -0.21781349 -0.065626845
0000a0 45 d5 5e be 83 9a 1e 3e 6e 3e 5b bf 12 6d 97 3e
       -0.21761043 0.15488629 -0.85642135 0.29575402
0000b0 fb 14 ba be c9 d3 09 bf ee bd ee bd d4 a0 08 bc
       -0.36344132 -0.53838784 -0.1165732 -0.008339126
0000c0 d2 67 01 3e 71 c7 bc 3e 5e 57 b3 bd 38 88 08 bf
       0.1263726 0.36870912 -0.08756898 -0.53332853
0000d0 14 82 b5 be 98 d1 5d 3b aa 58 04 be 9c 20 a4 be
       -0.35450804 0.0033846851 -0.12924448 -0.3205613
0000e0 ac f2 94 be b0 b7 06 bd 40 b6 52 be 58 da d4 bb
       -0.29091394 -0.03289002 -0.20577335 -0.006495755
0000f0 61 84 af 3d 34 4b 76 3a 5c eb a4 be fc 42 36 be
       0.08570171 0.00093953614 -0.32210815 -0.1779899

model/batch_normalization_18/FusedBatchNormV3;conv2d_14/bias;model/conv2d_14/BiasAdd;model/conv2d/Conv2D;model/conv2d_14/Conv2D f4 [32]
000000 88 98 ce be 93 41 9d 3e ff 44 07 bf 07 45 3d bd
       -0.40350747 0.30714092 -0.52839655 -0.046208408
000010 09 3e 04 bf b6 16 dd 3d 2f 93 d2 be 1a e8 b6 3d
       -0.5165716 0.107953474 -0.41127917 0.089309886
000020 c0 5a 25 be 51 37 88 3e b4 25 e8 bd 02 73 fe 3d
       -0.161479 0.26604703 -0.11335316 0.1242428
000030 bc 0a 83 be 3e cc e3 3e 41 35 9e be e5 1d c7 bd
       -0.25594127 0.44491762 -0.30900005 -0.09722499
000040 50 fa 5c 3e 15 5e 27 bd 3e c0 af 3e 6a 17 2c bf
       0.21579862 -0.040861208 0.34326357 -0.6722323
000050 c4 d3 46 bf 41 7e 3b bf 07 51 85 3c fd 5f 35 3e
       -0.7766688 -0.73239523 0.016273988 0.17712398
000060 d4 96 a3 3e 96 82 40 be 54 3a d8 3e ab 16 11 bd
       0.3195101 -0.18799815 0.42232 -0.03542201
000070 a7 b3 4b be b0 e6 7e be c0 f1 86 be 47 d1 0a bf
       -0.1989275 -0.24892688 -0.26356316 -0.5422558

model/depthwise_conv2d_5/BiasAdd;model/conv2d_9/Conv2D;model/depthwise_conv2d_5/depthwise;depthwise_conv2d_5/bias f4 [64]
000000 76 63 0b 3d c4 da 19 3d 16 77 85 3c 41 24 c1 bb
       0.0340304 0.037562147 0.016292136 -0.0058942144
000010 8e 67 44 3c a1 b4 1f 3b 2b a8 86 3c 42 93 09 3d
       0.01198758 0.0024369138 0.01643761 0.0335877
000020 c4 1c ad bb d0 6c eb 3c ce a6 40 bb 73 12 15 bb
       -0.00528297 0.02873841 -0.0029396298 -0.0022746592
000030 65 af 46 3d b9 2f af bc 12 19 8b bc 3a 22 04 3c
       0.048507113 -0.02138506 -0.016979728 0.008064801
000040 b9 f1 1e 3d 8c ce f6 bb dc ef 9d bb 1b a4 fa bc
       0.038804743 -0.0075319465 -0.004819853 -0.03059583
000050 0e 0a 9a bb 10 66 c4 bc 5a 5f 23 3d 77 c4 3f bc
       -0.0047009056 -0.023974448 0.039885856 -0.011704556
000060 8b f6 ab 3b 03 1d 6c 3c 5e 0d 8f bc f3 62 03 3c
       0.005247896 0.014411214 -0.017462429 0.008019197
000070 55 65 42 3c 6d 94 cf bb 04 f1 06 bc b7 ff 08 3d
       0.01186498 -0.0063348324 -0.008236174 0.033446994
000080 ed 92 bb bc a6 fb 62 3c d0 ac 32 bb 5c e1 93 bc
       -0.022897208 0.013853943 -0.0027263649 -0.018051796
000090 56 e9 0d bd 85 64 1c 3c 04 fa b5 3b 4f 15 8f bd
       -0.034646355 0.00954545 0.005553486 -0.06986486
0000a0 e8 9b d0 bc 13 b4 c8 3c ff 53 89 3c 99 b8 01 bb
       -0.025464967 0.024499929 0.016763685 -0.0019793867
0000b0 a1 fb 11 3d b3 22 21 3c a7 98 a4 3b a4 6d 1e 3b
       0.035640363 0.009834933 0.0050230804 0.0024174238
0000c0 51 bd b4 bc 7c b7 88 3c a7 e5 e2 ba ae 81 86 bd
       -0.02206293 0.016689055 -0.0017310873 -0.06567703
0000d0 89 51 b5 bb c3 ec 94 3b 66 a9 64 3c 75 cc 51 3d
       -0.0055334014 0.0045448258 0.013956403 0.051220376
0000e0 09 79 8a 3b 38 6c b5 3c a1 06 13 3c 2a d4 f3 3a
       0.0042258543 0.02214633 0.008973748 0.0018602659
0000f0 77 1a 6c bd a7 c9 d1 3b 0e a7 1a 3c dc 1c 25 3d
       -0.057642426 0.0064022127 0.009439243 0.040310726

model/batch_normalization_16/FusedBatchNormV3;conv2d_13/bias;model/conv2d_13/BiasAdd;model/conv2d_9/Conv2D;model/conv2d_13/Conv2D f4 [64]
000000 3c 5a 0d bd 5e 49 33 3c 3b 0c d8 3d ee 54 92 3e
       -0.034509882 0.010942785 0.10549208 0.2858042
000010 66 90 37 3e a2 38 c1 3c e5 52 a4 3d bd 24 c2 be
       0.17926177 0.023586575 0.080236234 -0.37918654
000020 b5 e8 ab 3d 5f 8b 7b 3d 2c b9 c5 bd a4 1d 44 3e
       0.08393995 0.06141221 -0.09654459 0.19151932
000030 f2 72 70 bd a0 0a 8f be 0c 76 c0 3d 5f 9a da 3d
       -0.05870337 -0.27937794 0.09397516 0.10673975
000040 c2 a3 03 bd 73 17 84 3c 64 73 2a be ec bc 89 be
       -0.032138593 0.016124463 -0.1664558 -0.26901948
000050 c7 11 66 3e 7f cb b4 3c b0 49 7f 3e 2c 6b ba 3d
       0.22467719 0.02206969 0.24930453 0.09102473
000060 78 66 51 bd 29 e0 d0 be 96 49 99 3c 7c 0c 8c bd
       -0.051123112 -0.4079602 0.018711846 -0.06838319
000070 81 ff 8e be d6 e0 a9 3c 22 25 43 bd fc 62 99 bd
       -0.2792931 0.020737093 -0.047642834 -0.07489583
000080 4e dd 0f be ec c6 41 be 0a 35 3e bd 9e 40 f0 3e
       -0.14049265 -0.18923539 -0.0464373 0.469243
000090 84 1d 9e be 46 56 53 bd dc 9e 52 3e 27 3d 1b be
       -0.30881894 -0.05159595 0.20568413 -0.15160047
0000a0 cf 86 5d be 14 1c 0a 3d a8 1e ab 3c 9a f7 74 3c
       -0.21633457 0.033718184 0.020888641 0.014951611
0000b0 17 c1 b8 3e a9 e4 fe bd 64 8b 09 be bb 0a 79 3b
       0.36084816 -0.12445957 -0.1343208 0.003800078
0000c0 0a 5c 3e 3e a4 f5 0a 3e 4f bc cd be de 75 92 be
       0.18589798 0.13570267 -0.4018273 -0.2860555
0000d0 7b 44 cf bd 52 d0 ad bd 14 9a 67 3d 05 bd bd bc
       -0.101204835 -0.084869996 0.056543425 -0.02316142
0000e0 01 ed ab 3d 8a a7 4b bd 2e 29 17 be 3a 8b b4 bd
       0.08394814 -0.049720325 -0.14761803 -0.08815618
0000f0 fd 2d 7c bd d3 9a 5b 3d c1 2d 8d be 68 9e 17 be
       -0.061567295 0.05361445 -0.2757397 -0.14806521

model/batch_normalization_15/FusedBatchNormV3;conv2d_12/bias;model/conv2d_12/BiasAdd;model/conv2d/Conv2D;model/conv2d_12/Conv2D f4 [32]
000000 f1 b7 ba 3e d5 31 aa 3e e4 49 75 3f 1a 21 06 bf
       0.3646846 0.33241144 0.95815873 -0.5239426
000010 1f 2c 4b 3e 73 4e 45 3e 81 81 54 3d 98 16 52 bf
       0.1984105 0.19268207 0.051881317 -0.82065725
000020 b6 9a 8d 3e ae 1d fc 3e ca c9 6e 3d b9 ec 5e bf
       0.27657098 0.49241394 0.05829791 -0.8707996
000030 4a ea 0e be 3a 21 43 3f 42 04 14 3e a1 c9 06 c0
       -0.13956562 0.76222575 0.14454749 -2.1060565
000040 80 0e f6 3e 41 c4 80 bf 6c 21 8e bd 7f 0c d1 be
       0.48057938 -1.0059892 -0.069399685 -0.40829846
000050 26 26 b3 bd ff 76 3c 3f 76 f3 f8 3c c2 35 90 3e
       -0.087475106 0.73619074 0.030389529 0.28166014
000060 12 72 fc bc 0b a9 63 bf d2 7e 29 bf bd 21 91 bf
       -0.030816112 -0.88929814 -0.6620914 -1.1338421
000070 ad 73 7d 3f 52 4a 88 3e dc fd dc be 8f 0f 92 be
       0.9900463 0.26619202 -0.4316243 -0.28527495

model/batch_normalization_14/FusedBatchNormV3;model/depthwise_conv2d_4/depthwise;model/depthwise_conv2d_4/BiasAdd;model/conv2d_9/Conv2D;depthwise_conv2d_4/bias f4 [64]
000000 95 6f ad 3f 8b 3a 25 3f d2 f9 6b 3f 96 6a 38 bf
       1.3549677 0.64542454 0.9217807 -0.7203764
000010 7e f5 5b 3f 12 a3 6d be ac c9 b1 bd d4 da 57 3f
       0.85921466 -0.23206738 -0.08681044 0.8431828
000020 3a b2 91 3f bc c8 cc be 08 b3 5c be 94 e2 e4 bd
       1.1382515 -0.39996898 -0.2155267 -0.11176029
000030 7f 05 21 be 42 87 ec 3e dd 7d cb be e4 36 8b 3f
       -0.15724753 0.46196944 -0.39744464 1.0876126
000040 c4 00 75 bf 79 c4 08 3f 72 e9 7a 3e 20 3e 1f bb
       -0.95704293 0.53424793 0.24503115 -0.0024298504
000050 5a 24 cd 3e f4 87 33 bf 2e 5f 1d 3d 16 cd 06 3d
       0.40066797 -0.70129323 0.03842085 0.03291043
000060 a9 45 a7 3e d0 15 71 3c 83 6e 77 be a3 93 21 be
       0.32670334 0.014714673 -0.2416325 -0.15778975
000070 43 fb f7 3e 59 e7 41 be 15 c3 88 be 80 a4 29 3d
       0.48433885 -0.18935908 -0.26711336 0.041416645
000080 20 e5 33 3e c0 5b b7 3e e2 80 2a 3e f9 62 87 bf
       0.17567873 0.35812187 0.16650727 -1.0577079
000090 22 7a b3 be 92 78 f3 3e 6e 5d 60 bf 8d 13 ba 3f
       -0.35054117 0.47552925 -0.8764256 1.4537216
0000a0 4c 1d 1f be 95 49 64 3f fb af 25 3e 4f d2 17 3f
       -0.1553852 0.8917478 0.16180412 0.5930528
0000b0 b5 5c 8e 3e 13 02 d0 be 4f 5d a4 3f 12 5b be be
       0.27805105 -0.40626583 1.2840976 -0.37178856
0000c0 74 08 0c bc e2 d1 ab bd 4c 49 0e 3f a7 12 68 bf
       -0.008546937 -0.08389641 0.5558059 -0.9065346
0000d0 a7 ad 43 3f 57 f3 18 3d 6e 85 42 bf c5 77 21 be
       0.7643685 0.037341442 -0.7598485 -0.15768345
0000e0 51 35 e3 3e 14 5f 19 3f d5 b1 b9 be 59 fa e1 3e
       0.44376615 0.599107 -0.36268488 0.44136313
0000f0 73 9b ae bd cc 9d 4f be 7a 51 de 3e 17 d5 8b be
       -0.08525743 -0.20275038 0.43421537 -0.27311012

model/batch_normalization_14/FusedBatchNormV3;model/depthwise_conv2d_4/depthwise;model/depthwise_conv2d_4/BiasAdd;model/conv2d_9/Conv2D;depthwise_conv2d_4/bias1 f4 [1, 3, 3, 64]
000000 47 1b b5 3d 98 74 4d bf bf 2d 9a 3e f9 b0 3a 3f
       0.08843093 -0.8025603 0.30113026 0.7292629
000010 ba c2 42 bf 5d cf 9f 3d 8c 96 84 3f 42 a1 33 bf
       -0.7607838 0.07803223 1.0358443 -0.70167935
000020 39 a8 99 be 57 46 4c 3f f8 6f 7e bf 86 39 35 bf
       -0.30011156 0.7979483 -0.993896 -0.707909
000030 ef a4 96 3c 4e 8e 67 3f ad fb bc 3e 4f 3b 32 bd
       0.018389193 0.90451515 0.36910763 -0.043513592
000040 07 2d 18 3f 79 62 7e 3e 30 70 b4 bd 3a a4 87 bf
       0.59443706 0.24842252 -0.088104606 -1.0596993
000050 0c af c5 be de 9f 9e bf 53 84 a0 3e f0 b8 28 3f
       -0.38610113 -1.2392538 0.31350955 0.6590719
000060 b9 77 9f 3e d2 fb 79 3f 3a 22 5d be ed 80 99 be
       0.3114603 0.9764987 -0.21595088 -0.29981175
000070 ee 38 25 bf 65 3c f2 3e b2 cd 64 3f 12 10 da 3d
       -0.6453999 0.47311702 0.89376366 0.106475964
000080 b6 fb 3e bf b7 86 79 3d 8f d4 b6 be e8 32 81 3d
       -0.7460283 0.06091949 -0.35709044 0.06308538
000090 7e 5c fa 3e 34 2e 0c bf 5f 52 ec 3e e9 88 15 be
       0.4889869 -0.54758 0.46156594 -0.14603008
0000a0 52 b3 2a 3f b9 6a 9f bf b0 62 10 3f de 5a 03 bf
       0.6667987 -1.2454444 0.56400585 -0.5131053
0000b0 10 ba 2f bf 7b 40 ca 3e 31 cb ea be a9 d3 b3 be
       -0.68643284 0.3950232 -0.45858148 -0.3512242
0000c0 63 82 2a 3f 01 9e 12 bf 5d af 94 3e 87 32 03 3f
       0.66605204 -0.57272345 0.29040042 0.51248974
0000d0 7e c1 53 3e fb 06 85 bf ec d1 01 3f f6 f3 f5 3e
       0.2067928 -1.0392755 0.5071094 0.4803769
0000e0 67 1b 65 3e 68 e0 c8 be 95 b0 55 3e 4d 7c 18 bf
       0.22373734 -0.39233708 0.20868142 -0.5956467
0000f0 b8 f8 08 3f 4e ed 12 bf 0d 34 6b 3f d0 d9 54 3f
       0.53504515 -0.5739335 0.918763 0.83144855
000100 c6 93 3f be 8c 1e 93 be 24 25 f8 3d b6 f5 c1 3f
       -0.18708715 -0.28734243 0.12116459 1.515311
000110 3f 50 04 bf bb 65 2f 3f 2d 9e e6 be 6d 5d c3 be
       -0.51684946 0.68514603 -0.45042554 -0.38157216
000120 82 50 aa be 62 2c 09 3f 21 9b e3 be ae 1d 23 be
       -0.33264548 0.5358335 -0.4445429 -0.1592929
000130 4c 2a 83 3e 48 41 c7 3e bb 1a f2 3e e7 1c 1f bd
       0.25618207 0.38916993 0.4728602 -0.038845923
000140 f7 1c a6 3e e9 8b 82 3f 16 27 97 be 06 d6 28 bf
       0.32443973 1.0198947 -0.29522008 -0.65951574
000150 ad cb 2a be 2b b8 11 3f cc 5c eb 3e c2 7e 44 3e
       -0.16679259 0.56921643 0.45969236 0.1918898
000160 b8 b5 92 bd 9d a6 24 3e 42 a6 ad bd 75 ea 2b 3e
       -0.07163566 0.16079183 -0.08478977 0.16788657
000170 2b a7 dd 3d 79 8c da be 72 aa da 3e 6b 17 36 3f
       0.108229004 -0.42685297 0.42708164 0.71129483
000180 83 5d e8 be c9 6b 4b bd 6a 92 9c bd 5b 82 49 3b
       -0.45383844 -0.04966334 -0.07645114 0.0030747864
000190 28 bf 24 3e 9c 39 6d 3e 58 ba 36 3e bd 90 12 bf
       0.16088545 0.23166507 0.17844522 -0.57252103
0001a0 2e c2 4a 3e 22 83 97 be bc 2e ea 3e c3 00 43 bd
       0.19800636 -0.29592234 0.4573878 -0.04760815
0001b0 cb 0d 3f bf 8d 63 d5 3e 2d 74 f9 be d8 cd 22 be
       -0.7463042 0.41677514 -0.48721448 -0.15898836
0001c0 10 71 08 3f 0c 06 81 bf 16 34 a4 3e c7 e5 ea 3e
       0.5329752 -1.007997 0.32070988 0.4587843
0001d0 ba 6a 23 bf 0a 01 0d 3f 16 eb 9d be 21 58 5e be
       -0.63834727 0.5507971 -0.3084342 -0.21713306
0001e0 5a 84 93 3e e5 a6 42 bf 0b 1c c2 3e cf 89 cc bd
       0.28811914 -0.7603591 0.3791202 -0.099872224
0001f0 f9 8d 60 3e b8 c2 bd 3d 97 de 05 3e bb 11 7d 3e
       0.21929158 0.09265655 0.13073193 0.24713795
000200 75 cd 48 be a7 d2 15 3e 9f bc 09 bf 5e 7b f7 3e
       -0.19609626 0.14631139 -0.5380344 0.4833631
000210 78 1a 29 3e b5 1f c0 bd 99 a8 25 bf ba 49 c2 be
       0.16514003 -0.09381048 -0.64710385 -0.37946874
000220 3f 7b 31 be bd c8 b9 3e 8d 3f 7a bf 24 d3 11 bf
       -0.17332171 0.36285964 -0.9775322 -0.569628
000230 88 cc b2 3f 93 ea 2a bf 00 9e 0c 3f cf 39 35 bf
       1.3968668 -0.6676418 0.5492859 -0.70791334
000240 43 f6 a1 3d e0 97 25 3d c9 4c 47 bf 75 59 28 be
       0.07908299 0.040428042 -0.7785154 -0.16440375
000250 e9 a6 15 bf ff 83 31 3f d6 16 81 3e 94 5b ba 3e
       -0.5845781 0.69342035 0.25212735 0.36397994
000260 08 f9 ce be 25 16 33 bf 51 f5 51 3e 1d ab b0 be
       -0.4042437 -0.69955665 0.20503737 -0.3450555
000270 a5 45 03 3f 26 b8 f3 be f1 24 09 bf 05 74 57 3f
       0.51278144 -0.47601432 -0.53571993 0.84161407
000280 0a 62 cd 3e 1e 23 fe be 99 b7 1a bf cd 04 ef bd
       0.4011386 -0.49636167 -0.604364 -0.116708376
000290 87 58 80 3e ae bc 56 bf e6 e4 a9 3f 40 3e 1d be
       0.2506754 -0.8388165 1.3272979 -0.15355778
0002a0 67 93 b4 3e 35 20 95 3e 00 d8 de 3e 90 f6 6a 3f
       0.3526871 0.29126135 0.4352417 0.91782475
0002b0 23 f8 63 bf 64 b3 3e 3f e1 4f ec be f2 54 15 be
       -0.890505 0.7449248 -0.46154693 -0.14583185
0002c0 d2 90 77 3f 77 b1 bf be a7 b9 2a 3e 17 02 47 be
       0.96705353 -0.37440082 0.16672383 -0.19434391
0002d0 1c a0 ff 3e a9 f7 e4 3e 73 08 2e be 3d f4 af be
       0.4992684 0.447202 -0.1699541 -0.34366027
0002e0 4c a1 52 3f b4 2a e9 3e a4 0b 1c 3f c4 a6 b5 3b
       0.8227737 0.45540392 0.6095526 0.0055435617
0002f0 07 6f b9 3e 9e 5f 4f 3f 00 83 04 bf c7 38 91 3e
       0.3621752 0.81005275 -0.5176239 0.2836363
000300 bc a3 47 be 1c 44 80 be cc f0 ac be 35 bd 67 3e
       -0.19496053 -0.25051963 -0.33777463 0.2263077
000310 37 4a 9c bf 06 8c 04 3f 97 77 ab 3d 67 79 09 3f
       -1.2210149 0.5177616 0.08372419 0.5370087
000320 ff 0f a2 be 49 f0 44 3e 9d 63 11 3f b1 e4 07 bf
       -0.3165283 0.19232287 0.5679262 -0.5308333
000330 80 78 83 be be 10 6c bd 75 6c 51 3f b8 1a 06 bd
       -0.25677872 -0.057633154 0.8180612 -0.032740325
000340 9c 94 21 3f d1 93 11 3d 7d 27 af be 9d ea 45 3e
       0.63117385 0.03554136 -0.34209815 0.19327779
000350 94 73 9a be f0 d0 08 3e 81 13 9a be 87 10 66 3e
       -0.30166304 0.13360953 -0.30093005 0.22467242
000360 89 2b 19 3f 64 c0 46 3f cf 53 ed bc 2a 21 2d bf
       0.59832054 0.77637315 -0.028970627 -0.6762873
000370 5e fc f2 be d0 3d d2 3f c8 24 51 3f b4 60 9e be
       -0.47458166 1.6425114 0.8169675 -0.30933154
000380 17 c8 71 3f 98 98 59 3f 3a 3d 01 bf 36 db 1a 3f
       0.9444594 0.84998465 -0.5048405 0.6049074
000390 6c f5 2b 3f 56 73 c4 3d 43 b2 84 be 9a 71 94 bf
       0.6717136 0.09592311 -0.25917253 -1.1597168
0003a0 10 06 b6 3e a9 87 c3 be b3 00 90 3e d9 98 11 bf
       0.355515 -0.38189438 0.28125533 -0.5687385
0003b0 de 2d 8e bd 4e 15 46 3d 09 df 63 be e2 50 d4 3e
       -0.06942342 0.04836016 -0.2225305 0.4146796
0003c0 6a be d2 3b 86 01 00 3f 01 8e de be c8 4b 88 be
       0.0064313905 0.50002325 -0.43467715 -0.26620317
0003d0 6f ad c7 3d 42 96 f5 be bd 25 a8 3f 45 e7 3e 3f
       0.09749877 -0.479662 1.3136517 0.7457164
0003e0 91 61 12 bf 10 da 84 bf 85 05 31 3e 9f 83 1f bd
       -0.57180125 -1.0379047 0.17287262 -0.038943883
0003f0 8d 42 a7 bc a6 f7 38 bc 69 78 cb be f7 85 4d 3f
       -0.020417476 -0.011289513 -0.39740303 0.8028254

model/batch_normalization_13/FusedBatchNormV3;conv2d_11/bias;model/conv2d_11/BiasAdd;model/conv2d_9/Conv2D;model/conv2d_11/Conv2D f4 [64]
000000 67 37 9c 3d 28 c4 a2 bc 72 43 3e 3c 3f c0 3f be
       0.07627755 -0.019868925 0.01161276 -0.1872568
000010 24 f5 8d be c3 3b c9 3d 56 60 0e 3c 5b 07 74 3e
       -0.2772609 0.09825852 0.00868996 0.23830931
000020 32 20 34 be c7 bf 2a bc df c9 c8 3e ac b0 0b 3e
       -0.17590407 -0.0104217 0.39216515 0.13641614
000030 e5 71 29 3e cf aa 5e 3e 26 ae 89 3e ac 9d 56 3e
       0.16547354 0.21744846 0.26890677 0.20958585
000040 76 65 fb 3e ab 17 95 3e 02 80 c1 3d 50 76 9a 3e
       0.49100846 0.2911962 0.09448244 0.3016839
000050 a4 33 4d bc dc 13 18 3e 0c 30 c6 3e 5f 88 c6 3d
       -0.012524519 0.14851326 0.38708532 0.096939795
000060 37 8b f0 3d 0f 65 12 be 30 0a 38 3c ba 5e 44 bd
       0.11745303 -0.14296363 0.011232898 -0.0479419
000070 73 97 a9 3e 7e 9f cf bd b6 a5 7d 3e d1 6a b5 3e
       0.3312336 -0.101378426 0.24770245 0.35433057
000080 ae e7 90 3e 04 c7 a9 3e 14 21 e6 3d 9e ae d9 bc
       0.28301758 0.3315965 0.11236778 -0.026572522
000090 75 fa ea bd fb ed 33 bd d7 d3 d1 3e c1 38 21 3e
       -0.11473552 -0.043928128 0.40981933 0.15744306
0000a0 c3 d9 e3 3e 82 c1 52 3e 07 09 c1 3e eb b3 60 3e
       0.44502077 0.2058163 0.377022 0.21943633
0000b0 43 4a e1 bd 5e ea 22 3e ae 6a 5d 3e 5c ec d7 bd
       -0.110004924 0.15909716 0.21622726 -0.10543129
0000c0 88 59 4b 3e 67 d8 ba 3e 3c 1b 7d 3d 36 5b 03 3f
       0.19858372 0.36493227 0.06179355 0.5131105
0000d0 07 ee 7b 3d 7b 0c 9e be 25 fd 3d bd a2 7b 4d 3d
       0.061506297 -0.30868897 -0.046383996 0.050166734
0000e0 a7 6e 7c 3e 48 96 b9 3e 82 1e 3a 3d be 2c 68 3d
       0.24651586 0.36247468 0.04543925 0.056683294
0000f0 6c 05 06 3e 3f 87 03 3c 86 97 6d 3e d5 e5 0b 3e
       0.13088006 0.008027851 0.23202333 0.13661893

model/batch_normalization_12/FusedBatchNormV3;conv2d_10/bias;model/conv2d_10/BiasAdd;model/conv2d/Conv2D;model/conv2d_10/Conv2D f4 [32]
000000 88 34 26 3e bf d4 0b bf 11 42 11 3f 03 66 b1 3e
       0.16230977 -0.546215 0.56741434 0.3464814
000010 57 6d ad be 33 3d 19 bf 19 2e 0a 3f f8 40 aa 3e
       -0.33872482 -0.5985901 0.5397659 0.33252692
000020 14 60 1a 3f fa 49 27 3a 14 b7 69 3f fc d1 ef bd
       0.60302854 0.0006381568 0.9129498 -0.11709973
000030 5c 9f 2b bf f0 5f 1f bf c6 b2 5b be ef 7a 77 bd
       -0.6704004 -0.62255764 -0.21454915 -0.060419973
000040 2b 5c ef 3e 2a 20 66 be 2b 6b 06 3f 73 59 7e be
       0.46750006 -0.22473207 0.52507275 -0.2483881
000050 fc ff c6 3d fd be 1c be 77 43 4e be dc e9 3c 3e
       0.09716794 -0.15307231 -0.20142923 0.18448585
000060 df 1c d0 3e 4e 83 3a be b3 77 7a 3e e7 a3 26 bf
       0.40647027 -0.18214151 0.24459724 -0.65093845
000070 80 8e a9 3d e3 c7 03 be ba ff f1 3e b8 f9 15 bf
       0.08279133 -0.1286922 0.47265416 -0.58584166

model/depthwise_conv2d_3/BiasAdd;model/conv2d_9/Conv2D;model/depthwise_conv2d_3/depthwise;depthwise_conv2d_3/bias f4 [64]
000000 19 f3 e7 3c 0a 1d 5b bc 72 f3 b2 bc 6e 14 03 3b
       0.02831416 -0.013373623 -0.0218446 0.002000119
000010 2b ae fc bb 96 b5 2a bd 6e 80 86 bd 6a 7d 2e ba
       -0.007711192 -0.04167708 -0.06567465 -0.00066562614
000020 bf d9 99 3c c4 ac d1 3c 26 4a 7e bc 56 c0 37 bd
       0.018780587 0.025595076 -0.015520608 -0.04486116
000030 ff 76 12 bb 64 0a a9 3c ce 32 90 bc f6 91 c3 bc
       -0.002234876 0.020634837 -0.01760235 -0.02387331
000040 a5 2f cf bb df 80 61 3b bb 0a 0b bd 1a 45 02 bd
       -0.0063228183 0.0034409089 -0.03394578 -0.03180418
000050 2f 66 82 39 8b ea 5e 3d c8 25 06 bc 64 7d bf bc
       0.00024871665 0.054422896 -0.008187719 -0.02337522
000060 98 74 8a 3d 53 94 d6 bc c5 3c 8a 39 1b 24 4c 3b
       0.0676052 -0.026193773 0.00026366688 0.003114945
000070 32 3f b0 ba fa 72 7b 3d 67 21 55 3d 80 3a 29 bd
       -0.0013446568 0.061388947 0.052033808 -0.041315556
000080 ae 0c 68 3d 2d fd 4b 3b dc 0f a2 bc 2b a4 c6 3b
       0.056652717 0.0031126246 -0.019782953 0.006062051
000090 bd 22 13 bd ea 85 c4 3c 26 46 48 3d 81 f3 7d bc
       -0.0359218 0.023989636 0.048895024 -0.01549995
0000a0 54 6f fc 39 80 aa a3 3d f2 b1 a2 bc 49 b8 d6 3c
       0.00048148131 0.07991505 -0.019860242 0.02621092
0000b0 5a 50 b9 bd 57 a2 62 3d c3 39 d8 bc 0a b2 13 3c
       -0.09048529 0.0553306 -0.02639473 0.009014616
0000c0 5d 2a a1 3c 6f a6 19 3d 5b 19 1b bd 54 2a 96 3d
       0.01967352 0.03751224 -0.037865978 0.07332292
0000d0 9a 82 ea bc 40 9f 46 3d 18 fe f0 bc 34 4f 50 bd
       -0.028626729 0.048491716 -0.029418036 -0.050856784
0000e0 de bb c1 ba b2 82 8e 3c 29 80 a5 bc 4b 26 91 3c
       -0.001478072 0.017396305 -0.020202713 0.017718455
0000f0 01 b4 41 bc c6 3e 34 3d 31 bb 11 3c c0 d0 58 bc
       -0.011822701 0.044005178 0.008894728 -0.013233364

model/batch_normalization_10/FusedBatchNormV3;conv2d_9/bias;model/conv2d_9/BiasAdd;model/conv2d_9/Conv2D f4 [64]
000000 e9 5b 3e 3e 9c 19 65 3e 4c 6f 42 be ac 84 d5 bd
       0.18589748 0.2237305 -0.18987769 -0.10425696
000010 3c e9 be 3e f5 6e 80 3d 2c fe c0 3e 9a a6 31 be
       0.3728732 0.062711634 0.37693918 -0.1734871
000020 be 48 5f 3e a7 b4 1d 3e ed 99 48 be 05 9c 25 3e
       0.21805093 0.15400945 -0.19589968 0.16172798
000030 d5 78 9f 3d 39 ba f1 3e b8 ce 21 bd bc 71 2d 3e
       0.07786719 0.4721239 -0.039503783 0.16937917
000040 d2 25 d4 3d 2e 22 23 be 47 eb 16 3e 70 ae 1c 3e
       0.10358776 -0.15931007 0.14738189 0.15300918
000050 3e 1d 4d be 82 07 34 be a8 ad ae 3c b1 5d c4 3d
       -0.20030686 -0.17580989 0.02132304 0.09588183
000060 1f cc 7c 3d 5e df 03 be d5 43 9a 3e a2 a7 83 3e
       0.061718103 -0.12878177 0.30129877 0.2571383
000070 e3 e8 ea 3d 6d 48 e0 3d 9a ba 2b be 93 c7 2b 3e
       0.11470201 0.10951314 -0.16770402 0.1677535
000080 db 8e 7c 3e c0 71 1a bd 90 f2 9b 3e f0 e9 40 be
       0.2466387 -0.037706137 0.30458498 -0.1883924
000090 77 13 10 3e 5c dd 79 bd 8b ad c5 3c fd 4c 2f 3d
       0.14069925 -0.06100212 0.024130603 0.04279803
0000a0 a4 a4 6f be 64 3e a9 bd ba 9b 98 3e a3 9a a5 bc
       -0.23402649 -0.08263853 0.2980631 -0.020215338
0000b0 d2 0f a9 3e 37 85 81 3e 98 7f a3 3d e3 7e ca 3e
       0.33019882 0.25296947 0.07983321 0.39549932
0000c0 9a 46 13 3e 18 37 7e 3d d4 99 4d 3e 1a 8a e6 3e
       0.14382401 0.06206426 0.20078212 0.45027238
0000d0 7d d0 0d 3e 34 d4 85 3e d6 db 90 3e f3 d1 8e 3e
       0.13849063 0.2613846 0.28292722 0.27894554
0000e0 f1 00 85 3e 1a a8 3d 3d a2 85 db bc 52 8c c2 3d
       0.2597728 0.046302892 -0.02679712 0.0949942
0000f0 cc cd 22 3e 51 63 85 3e 6d 00 20 3e 8b 17 a9 be
       0.15898818 0.26052335 0.15625162 -0.33025774

model/conv2d_8/BiasAdd;model/conv2d/Conv2D;model/conv2d_8/Conv2D;conv2d_8/bias f4 [32]
000000 94 b9 9f 39 fa d7 3f bb 34 3a 30 bb cb 98 86 bc
       0.0003046511 -0.002927302 -0.002689016 -0.01643028
000010 08 a6 21 3c b6 f8 da bb c7 01 68 3b 18 ef a6 bb
       0.009866245 -0.0066824807 0.003540145 -0.00509442
000020 a6 e6 70 3b 31 14 9c 3c fc 70 4b bb d1 a4 dd 3b
       0.003675857 0.019052597 -0.0031042686 0.0067640324
000030 dd 75 9f bc 67 0f 9c bc 92 ca bb 3b 9e 45 4f 3c
       -0.019465381 -0.019050313 0.0057309354 0.012650875
000040 2c 00 c6 3b 40 4f 1b bc e3 e8 0e 3c 32 7b e1 b9
       0.006042501 -0.009479344 0.008722517 -0.00043007132
000050 bc d4 33 ba 15 77 a9 bb a4 a2 78 3c 32 4d 82 3a
       -0.0006860008 -0.0051716664 0.015175495 0.0009941219
000060 64 7d 39 3b 50 fa f2 3b 94 30 f0 3b cd fc 3c bb
       0.0028303498 0.0074150935 0.0073300097 -0.0028837204
000070 e3 17 a2 bc f4 94 f5 bb e1 2c 32 bc 7e d2 5f bc
       -0.01978678 -0.0074945632 -0.010874958 -0.013661025

model/batch_normalization_9/FusedBatchNormV3;conv2d_7/bias;model/conv2d_7/BiasAdd;model/conv2d/Conv2D;model/conv2d_7/Conv2D f4 [32]
000000 e2 a5 68 3f 24 65 e9 be ca 0f 07 be a6 f7 fa 3e
       0.9087812 -0.45584977 -0.13189617 0.49017066
000010 38 d2 8c bf 38 fe a2 3f 5c 2e 97 3d 72 ed f1 bd
       -1.1001654 1.2733831 0.07381889 -0.11812867
000020 ba ca cf bd 03 8a 1a 3e 67 12 0e bf 8b 6b 28 be
       -0.10146089 0.1509171 -0.5549683 -0.16447274
000030 57 96 86 be d9 fc 0f bf 3e d5 5c bf 33 0e 0c 3f
       -0.26286575 -0.5624519 -0.8626288 0.54709166
000040 0f b5 d4 be ae 08 65 bc c8 77 b5 3f 85 dc 99 be
       -0.41544387 -0.01397912 1.4177179 -0.30051056
000050 64 63 6d 3f 69 8d 39 3e 0e 79 8d bf 93 3f 80 be
       0.92729783 0.1812035 -1.1052568 -0.25048503
000060 07 0d ad bf 97 0b 89 3e e0 6b a4 3e db 70 3e be
       -1.3519601 0.26766655 0.32113552 -0.18597738
000070 e7 9f 90 bf 44 57 c8 bd e2 b5 45 be 5c 73 cf 3f
       -1.1298798 -0.097822696 -0.19307664 1.620708

model/batch_normalization_8/FusedBatchNormV3;model/depthwise_conv2d_2/depthwise;model/depthwise_conv2d_2/BiasAdd;model/conv2d_6/Conv2D;depthwise_conv2d_2/bias f4 [48]
000000 dc 30 2e be c4 dc 79 3f 0b 6c 31 bf c6 da 87 3f
       -0.17010826 0.97602487 -0.69305485 1.0613639
000010 ae 15 d5 3f 70 72 d5 be ac 6d d4 3c 09 9a 01 bf
       1.6647241 -0.4168887 0.025931202 -0.50625664
000020 07 3f 0d be 05 61 15 be 26 59 41 3e 91 ca 98 3d
       -0.13793574 -0.14587791 0.18881664 0.074605115
000030 40 a6 d2 3f 11 87 80 3e cb 71 94 bf e4 83 04 3e
       1.6456985 0.25103047 -1.1597227 0.12940937
000040 60 81 e8 bd b7 d6 3d 3f f6 c1 74 3f e1 87 0d 3e
       -0.11352801 0.74155754 0.9560846 0.13821365
000050 79 0f 97 bf d6 6b 82 3f bd 87 7f 3f fb 1a e8 3f
       -1.1801597 1.0189159 0.99816495 1.8133234
000060 f8 70 12 be 92 5a 54 be 99 5a b9 be a7 8c e5 3e
       -0.14300907 -0.20737675 -0.36201933 0.44833872
000070 91 b6 8a 3f 90 ac 56 3f 27 3f b0 3e 68 60 bf 3e
       1.0836965 0.8385706 0.3442318 0.3737824
000080 19 05 ba 3f 93 d0 67 bf 9e 82 8b bf af 0b 95 3e
       1.4532806 -0.90552634 -1.0899236 0.29110476
000090 28 51 ff be 9d 27 c6 3e e6 30 5a 3e 3b 4a 4a bf
       -0.49866605 0.38702098 0.21307716 -0.79019517
0000a0 e1 ce b3 bf f7 7f e1 be f7 e3 35 3f 14 32 9f 3e
       -1.404751 -0.44042942 0.7105097 0.31092894
0000b0 6a 83 bf 3e a8 3d 17 3f c4 ec c3 3e 9d 90 52 bf
       0.37404948 0.59078455 0.38266575 -0.8225191

model/batch_normalization_8/FusedBatchNormV3;model/depthwise_conv2d_2/depthwise;model/depthwise_conv2d_2/BiasAdd;model/conv2d_6/Conv2D;depthwise_conv2d_2/bias1 f4 [1, 3, 3, 48]
000000 fa 0d e1 be 98 07 82 bd 36 05 54 3e c9 db 0c 3f
       -0.43955976 -0.06349105 0.20705113 0.55022866
000010 76 13 48 3f b4 22 1e bf 2e e4 64 3f d6 13 cc 3d
       0.78154695 -0.617717 0.89410675 0.09964721
000020 a3 a4 8a 3f bd cb d5 be 06 68 b5 3b 72 cc 2e 3f
       1.0831493 -0.41757002 0.005536082 0.6828071
000030 4e ec 1c be 6d a1 2f 3f a4 76 2f be df 3f 07 bf
       -0.15324518 0.6860569 -0.17135102 -0.52831835
000040 cd 02 b1 3e ca 09 41 bf 62 ff 55 be 42 da 64 3f
       0.3457245 -0.7540556 -0.20898202 0.89395535
000050 4b a6 ff 3e 92 a8 8b be 72 58 ca 3e 8b 81 0a bf
       0.4993156 -0.27277046 0.39520603 -0.54103917
000060 38 d4 c7 3e 93 14 04 bf 2b 92 a8 3e f3 38 0d 3f
       0.39029098 -0.51593894 0.32924017 0.5516502
000070 7c 25 71 3e fa a5 8e be 54 19 02 c0 38 cc 83 be
       0.23549455 -0.27861005 -2.032796 -0.25741744
000080 28 9f 25 bf 93 0a 5f 3e b5 dd b7 3e 4e 5e fe be
       -0.6469598 0.21781377 0.35911337 -0.49681324
000090 9f 0c f5 3e bb a6 70 3e 5c cb 4f 3e cf b5 47 bf
       0.47861192 0.23501103 0.20292419 -0.7801179
0000a0 6e d1 c0 be 2a 84 e6 3d 91 9b d7 be 5e 2f 0b 3f
       -0.37659782 0.11255677 -0.42110875 0.5436915
0000b0 86 3a 3e be e6 08 bf bd 56 a7 6a bf 3c ce a0 be
       -0.18577012 -0.09327869 -0.91661584 -0.31407344
0000c0 e4 d7 b0 3e 28 46 50 3e 6c 77 6f 3f fd 16 88 be
       0.3453971 0.20339262 0.935416 -0.2658004
0000d0 b2 8d 6a bc 48 d9 6d be 86 8a 16 3e 06 15 3f be
       -0.014316009 -0.23227417 0.1470128 -0.18660364
0000e0 aa 4d 9d 3e 12 71 6a be a3 64 73 be de 77 39 3f
       0.30723315 -0.22894695 -0.23768859 0.7244853
0000f0 89 d8 6b be 48 d3 c6 bf fe da 08 3f 73 03 80 be
       -0.2303182 -1.5533228 0.53459156 -0.25002632
000100 12 5e bf 3d 3f 5a 23 bf 9b b1 25 3e e9 46 e2 3e
       0.09344114 -0.6380958 0.16181032 0.44194725
000110 7f bd 40 3f b8 67 00 bf 08 de 61 be 74 00 9b bd
       0.7528915 -0.5015826 -0.22057354 -0.07568446
000120 12 c5 02 bf ff 55 b1 be 8f 89 bd 3f 4d 57 c3 3e
       -0.51081955 -0.34635922 1.4807605 0.38152543
000130 47 ff 10 bf 3f e0 59 be 25 f6 4c bf fa bb 08 bf
       -0.5663952 -0.2127695 -0.80063087 -0.5341183
000140 2a 87 8b be 02 16 30 3d 6b 99 67 3e 99 ea 73 3f
       -0.2725156 0.04298974 0.22617118 0.9527984
000150 51 b6 e9 3d fd bf 98 be 20 1e 86 be e3 96 58 be
       0.11411727 -0.29833975 -0.2619486 -0.21151309
000160 43 9a 26 be d7 2b bf 3f f8 36 39 bf 91 63 cf bd
       -0.16269784 1.4935254 -0.723495 -0.10126413
000170 34 8f 34 3e 2a cc 2b 3f 0a 12 e4 be 29 cd ae 3f
       0.17632753 0.67108405 -0.44545013 1.365636
000180 11 a9 32 3f d7 65 55 bf 37 e4 38 3f e2 9f fb be
       0.69789225 -0.8335852 0.7222323 -0.49145418
000190 1e e3 07 bf bf 1c d1 3d 31 c4 31 bf 68 e8 c1 bd
       -0.5308093 0.10210561 -0.6943999 -0.09468156
0001a0 d3 d5 d3 3c 33 97 60 bf 3b ee 00 bf ef 87 f4 3e
       0.025858795 -0.8773071 -0.5036351 0.4775996
0001b0 25 d3 8c 3d 1b b5 56 be 2b 85 4d 3f be 90 60 3f
       0.0687621 -0.20967524 0.80281323 0.8772086
0001c0 f9 08 bf 3e dd 84 92 bf b0 e1 c4 3e 72 9e 40 3f
       0.37311533 -1.1446797 0.38453436 0.7524177
0001d0 c3 2d 78 be df 59 5f be f2 58 83 bf 20 08 6b 3e
       -0.24236207 -0.21811627 -1.0261519 0.22952318
0001e0 8d 36 14 bf 0f 34 f8 be 5e 36 85 3d 99 86 52 3f
       -0.5789574 -0.48477218 0.0650451 0.8223663
0001f0 2c 02 1f be c3 19 1a bd a1 7a ff 3e 15 82 a0 be
       -0.15528172 -0.037622225 0.49898246 -0.31349245
000200 71 1a 3d 3f 8c 2d 77 3d fc 7b 91 3e 4d d7 1a 3f
       0.7386847 0.06034617 0.28414905 0.6048477
000210 42 94 2d bf 0a 0e 83 3f ca 8a db be 47 39 93 3f
       -0.6780435 1.0238659 -0.42879325 1.1501855
000220 ec 2d 85 3f 74 48 f8 3e 9a c4 bd be f4 79 f9 be
       1.0404639 0.48492777 -0.37064058 -0.48725855
000230 b3 5f 40 3f 77 b5 46 bf 6c e7 04 3f 7f 2b 72 bf
       0.75146025 -0.77620643 0.5191562 -0.9459762
000240 b9 87 07 be c6 f7 80 3e 43 ee 97 3e 0b f3 4c bf
       -0.13235368 0.25189036 0.29673967 -0.80058354
000250 c5 be 21 3d dd a4 b7 3e e4 09 32 bf c5 a9 c5 3f
       0.039488573 0.35867968 -0.6954634 1.5442435
000260 02 96 43 3f a9 c3 bb 3e e8 c3 4b bf 3e 9b 92 3e
       0.7640077 0.36672714 -0.79595804 0.28634065
000270 1c c5 6f bf fc c4 04 c0 47 62 72 3e 6d f8 67 bf
       -0.9366014 -2.074523 0.23670302 -0.9061344
000280 cf 43 95 3f 60 70 ad 3e 98 8e b5 bf b1 60 8d 3d
       1.1661319 0.33874798 -1.4184141 0.06903208
000290 eb 85 3a be 18 73 5e 3f 28 67 f8 bf 11 c6 51 bf
       -0.18215148 0.8689437 -1.9406481 -0.8194285
0002a0 f6 f3 1b bd 8e 89 64 3e 29 43 55 3f d0 3f d5 be
       -0.038074456 0.22318098 0.83305603 -0.41650248
0002b0 3a cd 38 bf 90 11 34 bf 90 5b 19 be 3d e1 0a bf
       -0.7218815 -0.703393 -0.14976335 -0.54249936
0002c0 e5 35 c0 3e e7 d4 b5 3f f4 03 5a 3d 88 43 d5 be
       0.37541118 1.4205598 0.053226426 -0.41653085
0002d0 23 43 10 40 3e ba 92 bf 1a f4 3f 3f c5 b4 44 bf
       2.2540977 -1.1463087 0.74981844 -0.7683833
0002e0 c2 88 49 3f 46 fc 54 bf 3d d8 0c bf 37 89 d3 3e
       0.787243 -0.8319744 -0.55017453 0.41315624
0002f0 9a 27 25 bf c6 30 20 40 e3 d9 d4 be b9 45 d4 3f
       -0.6451355 2.502977 -0.41572484 1.6583778
000300 69 3a 08 bf d5 7d 5f 3e 42 a7 81 3e 97 16 04 bf
       -0.53214127 0.21825345 0.2532292 -0.5159697
000310 0c 8e ef be 46 d0 5e be b7 ac 01 bf 1c 0f c8 bd
       -0.4678806 -0.21759138 -0.50654167 -0.09768507
000320 47 58 06 be 80 b6 b9 3e 70 49 4e 3d 10 2e 49 bf
       -0.13119613 0.3627205 0.050363004 -0.7858591
000330 7b 7f 65 bf d4 22 e6 3e b0 75 12 3f 7f a7 9f be
       -0.89647645 0.44948447 0.57210827 -0.31182477
000340 87 51 5e 3c d9 f7 29 3f 61 cd 17 be 80 31 31 be
       0.013569242 0.6639381 -0.1482444 -0.17304039
000350 27 47 95 3e 10 73 ec 3e 4e 68 39 bf 86 cd 74 3e
       0.29155847 0.46181536 -0.7242478 0.23906526
000360 54 09 4d bf f7 68 8b 3e a6 3a ee 3e a3 98 07 bd
       -0.8009236 0.2722852 0.4652912 -0.03310455
000370 be fc 06 3f 28 65 bb bc 65 41 0b 3f c5 b5 ac be
       0.52729404 -0.022875383 0.5439666 -0.3373243
000380 b8 3e 34 bf 55 7e 06 3e d2 bc b4 bd 2b ba da be
       -0.704082 0.1313413 -0.08825077 -0.4272016
000390 18 41 bc 3e 54 7c a1 be 7c 43 03 3f 45 c1 22 bb
       0.36768413 -0.31540167 0.5127485 -0.0024834436
0003a0 f3 c0 71 3f 7a e0 f6 3e ab 80 58 be 9f a6 13 bf
       0.9443504 0.48218137 -0.21142833 -0.5767612
0003b0 71 e0 58 3d 1b 37 4c bf 52 10 05 3f c8 da 72 3f
       0.05294842 -0.79771584 0.5197803 0.94865084
0003c0 e5 6f e0 3e 48 1d 3c bf a9 92 10 bf d2 30 28 bf
       0.4383537 -0.7348218 -0.56473786 -0.65699494
0003d0 93 d3 a3 bf c3 e6 3c be a9 2d 59 3b 08 c3 f3 be
       -1.2798942 -0.18447404 0.0033138788 -0.47609735
0003e0 37 89 a1 be e3 14 3a 3e f2 0e 81 be e5 43 80 be
       -0.3155 0.1817203 -0.25206715 -0.250518
0003f0 14 78 8d bd 20 1f fa 3f d0 90 f7 3f ea 3d b3 3e
       -0.06907669 1.9540749 1.9341068 0.35008174

model/batch_normalization_7/FusedBatchNormV3;conv2d_6/bias;model/conv2d_6/BiasAdd;model/conv2d_6/Conv2D f4 [48]
000000 fd 2b 2a bd a4 5d 5d 3d 55 96 be 3d f8 ea 55 3e
       -0.041545857 0.05404438 0.09306017 0.20890415
000010 c4 be bd 3e 25 c0 cf 3d 21 fb 61 3e 75 be cd bd
       0.37059605 0.101440705 0.22068454 -0.100460924
000020 33 21 b0 3e f3 5d 1d 3e 68 9a 14 3f 01 15 de 3d
       0.3440033 0.1536787 0.58048105 0.1084385
000030 09 9b ba 3d 1c 8e bf 3d 25 f0 a8 3d da 7c 30 bd
       0.09111602 0.09353277 0.08248929 -0.043087818
000040 08 9b 5c 3d 2c 21 cb 3e 65 3b d3 3e 2e b7 05 3f
       0.053858787 0.39673746 0.41256252 0.52232635
000050 6d 93 a9 3d 00 41 e3 3e f7 a4 a4 3e b3 85 2d be
       0.08280072 0.4438553 0.32157108 -0.16945533
000060 d9 40 c3 be 39 9a e9 3d 86 05 09 be ea f0 84 3e
       -0.38135412 0.11406369 -0.13381013 0.25965053
000070 c6 71 46 3e 08 8f 77 3e c4 c5 d4 3e 88 a8 ce 3e
       0.19379339 0.24175656 0.41557133 0.40362954
000080 3c 16 17 3f 8f e5 34 bd cc 8b 29 bb b0 68 8d 3d
       0.590183 -0.044164237 -0.002587068 0.06904733
000090 63 ea d3 3e a5 af 85 be dc 6c f0 3e 9b 64 c8 3e
       0.4138976 -0.2611057 0.46958053 0.39139256
0000a0 29 16 57 3e 96 23 67 bc 3c ca df bd 7c b2 76 3e
       0.21004547 -0.014107605 -0.10927245 0.24091524
0000b0 6c df 01 3e c7 7e f7 3e d3 18 0e bd 69 01 5b 3e
       0.12682885 0.4833891 -0.034691643 0.21387257

model/batch_normalization_6/FusedBatchNormV3;conv2d_5/bias;model/conv2d_5/BiasAdd;model/conv2d_5/Conv2D f4 [24]
000000 18 6d f1 be da 38 74 be 85 98 0b 3e c7 a9 60 3f
       -0.47153544 -0.23849812 0.136324 0.8775906
000010 3d 2e 13 3f 51 6f 40 bf 62 e0 4f bc e4 80 1f 3e
       0.5749243 -0.75169855 -0.012687774 0.15576512
000020 41 86 ea bc 96 d1 3c bf ce af 12 be 9c 7e d7 3e
       -0.02862847 -0.737573 -0.14324877 0.42088783
000030 3c f3 7e 3e 97 bf aa 3e 8e fe 63 be 1c 11 92 be
       0.24897474 0.33349296 -0.22265074 -0.28528678
000040 0b c3 47 3e 22 ef 03 bf b6 9d 15 bf d3 7f b9 bd
       0.19507997 -0.5153676 -0.5844377 -0.09057584
000050 29 4e a1 bd 4b fc 28 3f 38 94 1f bd 34 78 7e bf
       -0.07876236 0.6600997 -0.03895971 -0.99402165

model/depthwise_conv2d_1/BiasAdd;model/conv2d/Conv2D;model/depthwise_conv2d_1/depthwise;depthwise_conv2d_1/bias f4 [32]
000000 a5 84 95 3c ff e9 86 bd d0 89 0b 3d a9 89 23 3d
       0.018251726 -0.065876 0.034066975 0.039926205
000010 c3 25 07 3d 61 2b 98 3d 19 5b 9f ba 65 23 4e bd
       0.032994997 0.07430149 -0.0012157887 -0.050326724
000020 39 2c 5a 3d 45 14 11 3c f4 02 59 3d f4 23 86 3d
       0.05326483 0.00885493 0.052981332 0.06549826
000030 6f 52 90 bc d2 24 49 bd af f6 3a 3d 97 9e 9e bd
       -0.017617432 -0.04910738 0.045645412 -0.07745092
000040 d5 ce b2 39 4e 99 af bc 65 12 8b bd 8f 27 c6 3c
       0.00034104908 -0.021435406 -0.06790618 0.024188785
000050 9e d7 44 b9 76 98 8d bb c2 90 00 bd 70 b9 3e bd
       -0.0001877234 -0.0043211533 -0.03138805 -0.046563566
000060 1a 0e 4b ba a5 2e a8 3d 3d 8a f9 3b 3c 08 21 3d
       -0.0007745937 0.08212022 0.0076153562 0.039314494
000070 ce 1f e2 3d 83 c0 1a bc 17 f9 0c 3d 97 dd 53 3d
       0.110412225 -0.009445312 0.034417238 0.051724996

model/batch_normalization_4/FusedBatchNormV3;conv2d_4/bias;model/conv2d_4/BiasAdd;model/conv2d/Conv2D;model/conv2d_4/Conv2D f4 [32]
000000 02 25 e8 3e b7 44 3d 3f 8e 5b 0e 3f 89 ed 7a 3e
       0.45340735 0.73932976 0.5560845 0.24504675
000010 78 70 56 3f 18 35 8d 3e b2 d7 46 3f 26 98 30 3f
       0.83765364 0.2757957 0.77672875 0.6898216
000020 48 e1 3c 3e 33 f0 fd 3e 02 2f 32 3f aa ca 46 be
       0.18445313 0.4959732 0.6960298 -0.19413248
000030 9e eb cb be 91 09 12 3f 0a 4c e8 bd fb 76 a3 3e
       -0.398282 0.5704585 -0.11342628 0.31926712
000040 d8 33 a0 3e 02 db 32 3f 5f a9 5e be e6 00 1c 3f
       0.31289554 0.6986543 -0.21744297 0.6093887
000050 3a a7 3d 3f 3d ec 93 be 3a c9 82 3e 88 17 4b 3f
       0.7408329 -0.28891173 0.2554415 0.7933278
000060 c1 be b5 3e 0b 26 7e 3d 42 dc d6 be be d1 ca 3e
       0.35497096 0.062048 -0.41964918 0.39613146
000070 07 c8 c5 be 33 52 41 3f 17 3f 29 be 02 a9 e2 3e
       -0.3862917 0.7551605 -0.16527973 0.44269568

model/batch_normalization_3/FusedBatchNormV3;conv2d_2/bias;model/conv2d_2/BiasAdd;model/conv2d_3/Conv2D;model/conv2d_2/Conv2D f4 [16]
000000 d1 49 fd be 9b b8 73 3f 2a 64 87 3f f2 66 29 3f
       -0.4947038 0.9520356 1.0577443 0.6617271
000010 6d 46 80 be f2 8a ef be 71 97 e6 3c d6 da 70 bf
       -0.2505373 -0.46785694 0.028148385 -0.9408392
000020 da cd 48 3f 61 1d 5e 3f 52 39 08 3e ee 2d 71 3e
       0.78439105 0.8676358 0.13303116 0.23552677
000030 bd 66 67 bf 89 5e aa 3e 55 85 60 3f 76 e7 88 3f
       -0.9039114 0.3327525 0.8770345 1.0695636

model/batch_normalization_2/FusedBatchNormV3;model/depthwise_conv2d/depthwise;model/depthwise_conv2d/BiasAdd;model/conv2d/Conv2D;depthwise_conv2d/bias f4 [32]
000000 6c e7 88 3f 52 ae 56 be 8c 65 f7 3d de 5d 28 bd
       1.0695624 -0.20964935 0.120799154 -0.041105144
000010 8d 84 a6 be c6 c2 3c be a5 c3 61 3f de bd 25 3f
       -0.32523003 -0.18433675 0.88189155 0.6474284
000020 43 e0 47 3f 60 8c 59 be e9 7b 3b be 31 0a d0 be
       0.7807657 -0.21244955 -0.18308987 -0.40632775
000030 41 5b 1d 3f 38 6c 66 3d 6a 87 a1 3f 28 ab 0b 3d
       0.6146737 0.05625555 1.261945 0.034098774
000040 74 b2 35 3e c9 c5 9c 3f c5 a1 77 3e 14 8b 9d 3d
       0.17743856 1.2247859 0.24182804 0.07692543
000050 cb 02 63 be 0a fa a4 3d aa 50 52 3e 80 7e 50 3e
       -0.22169034 0.08055504 0.20538583 0.20360756
000060 44 23 ff be 0f 38 7a 3f c0 2e bc 3e 68 18 aa be
       -0.49831593 0.9774179 0.36754417 -0.33221745
000070 a9 9b 6e be a6 be ca 3e fe 87 e5 3e bc ac 67 be
       -0.23301567 0.39598578 0.44830316 -0.22624487
